weights/checkpoint_actor.pth (torch_old, 87590 bytes, 10 tensors)

bn1.weight f4 [33]
000000 89 57 62 3f 0f c3 de 3e cb c6 77 3f 3a 36 6a 3e
       0.8841482 0.43508193 0.9678771 0.22872248
000010 96 61 00 3d b2 eb 44 3e 87 43 bf 3c e8 24 01 be
       0.031343065 0.19230536 0.02334763 -0.12611735
000020 59 4e f1 3d 10 fc f3 3c 34 27 7f 3e 7c f0 05 3e
       0.11782522 0.029783279 0.24917299 0.13080019
000030 e6 21 6c 3e 03 d2 b5 3f a5 36 32 3f 93 38 aa 3f
       0.23059806 1.4204715 0.6961463 1.3298515
000040 7a db ac 3d ef 14 24 3e 66 8f 45 3e 0f 2a 37 3e
       0.08440299 0.1602361 0.19292983 0.17887138
000050 d0 4e 25 3e 87 87 89 3d 12 e2 fa 3d fa 6c 16 3f
       0.16143346 0.06715303 0.12250151 0.58760035
000060 08 21 cb 3e d0 8c 09 3f 11 11 8c 3f 04 26 4c 3e
       0.39673638 0.5373049 1.0942708 0.19936377
000070 35 12 86 3f 80 dd c9 3b 14 99 73 3f 00 25 9a 3d
       1.0474306 0.006160438 0.95155454 0.075265884
000080 89 f6 42 3f
       0.7615743

bn1.bias f4 [33]
000000 a4 b7 bb 3d fb d9 5f be 49 d0 cf bd 11 a1 2b 3d
       0.09165886 -0.21860497 -0.10147149 0.04190165
000010 57 ac 08 3d a1 f0 16 3d fd f1 49 3c f3 5f dd 3c
       0.03336748 0.036850575 0.012325761 0.027023291
000020 ae e5 09 3d 98 b7 a5 3b 5a 07 33 3a ee a8 cc bb
       0.033666305 0.0050572865 0.00068294036 -0.006245724
000030 99 55 2b bd 0b 68 c2 3d 73 17 8a bd 59 19 08 3d
       -0.04182968 0.09492501 -0.06742754 0.0332273
000040 af e2 56 bd 6b 37 51 3b 04 22 93 bd 1b 96 13 3d
       -0.052462276 0.00319239 -0.07184222 0.036031824
000050 f3 78 e7 3c bf ee 33 bc 44 7d f2 bc 94 55 02 3e
       0.028255915 -0.0109822145 -0.029600747 0.12727958
000060 e4 00 9e bb c8 9b 8d bd 82 b6 44 3d dd 37 19 bb
       -0.0048218835 -0.069144785 0.048025616 -0.0023379244
000070 98 f4 09 3e e0 10 52 3c 04 eb f0 be 03 6e 1a bb
       0.13472211 0.012821406 -0.47054303 -0.0023564107
000080 11 10 cd bd
       -0.1001283

bn1.running_mean f4 [33]
000000 de eb 4c bc 09 23 15 c0 10 89 6c be 7a c6 52 3f
       -0.012507407 -2.3302634 -0.2309916 0.823341
000010 bc e3 28 3b 83 b7 2d bd 8b 4e 17 bd 58 a5 2c 3c
       0.0025770506 -0.04241134 -0.03694014 0.010537468
000020 48 94 19 bc 91 0c 96 3b d4 50 b5 3b 16 11 41 bd
       -0.009373732 0.0045791348 0.005533317 -0.047135435
000030 7e 5a c7 3a d5 f0 0e 3e 3a 28 11 c0 56 f1 db be
       0.0015209464 0.13959058 -2.2680802 -0.42957562
000040 ce 79 32 3c 38 31 12 3c 71 86 b4 bc de 82 3f be
       0.010893298 0.0089228675 -0.022036763 -0.18702266
000050 24 b7 c0 bb 17 c5 29 3d 49 be 71 bd 42 8d df 3c
       -0.005881207 0.041447725 -0.05901936 0.027289037
000060 4c 6e fe 3c 68 6c e5 3c fd db 81 3e fc ff 7f bf
       0.031058453 0.028005794 0.2536315 -0.99999976
000070 99 e9 3a be 00 00 00 00 fc ff 7f 3f 00 00 00 00
       -0.18253173 0.0 0.99999976 0.0
000080 0c 05 1e bd
       -0.03857903

bn1.running_var f4 [33]
000000 ed 7a 98 40 58 b2 26 3f 57 af a5 40 c4 37 b2 3d
       4.7650056 0.6511588 5.177654 0.08702043
000010 b7 56 a5 3d 9f ed d2 3c a3 80 00 3e 8d 14 af 3e
       0.0807318 0.025748072 0.12549071 0.34195367
000020 86 f9 87 3d 8e a4 e0 3d ca 7c 08 40 ab 46 ad 3f
       0.0663939 0.10968886 2.1326165 1.3537191
000030 0c 41 2b 40 58 4a a5 41 97 2f 1b 40 88 c9 bf 41
       2.6758451 20.6613 2.4247797 23.973404
000040 61 48 db 3d a1 f2 ac 3e 86 f8 b8 3d 6a 66 dc 3e
       0.107071646 0.3377886 0.09031777 0.43046886
000050 2e 8f f8 3f 3e f0 37 3f 4f b9 27 3f 29 df e3 40
       1.9418695 0.71850955 0.65517133 7.120991
000060 26 20 a3 40 bf 20 02 41 4a 6d f9 41 04 00 00 00
       5.0976744 8.132995 31.178364 6e-45
000070 0f 0c 03 42 04 00 00 00 04 00 00 00 04 00 00 00
       32.761776 6e-45 6e-45 6e-45
000080 b2 e6 87 3e
       0.26543194

fc1.weight f4 [128, 33]
000000 3e 7a 1a bf 3a b8 74 3b 73 6d 99 bc fd 0e 3a bf
       -0.60342777 0.0037341253 -0.018728947 -0.7267912
000010 ab e7 be 3e c3 45 a9 bb bf 7a cb be e7 40 37 be
       0.37286124 -0.005165787 -0.39742085 -0.17895852
000020 bf ca 6e bf e7 20 a4 be 0a 61 05 bd fa d4 bf be
       -0.93278116 -0.32056352 -0.032563247 -0.37467176
000030 42 84 78 bd 7d ca 5a 3f 1b bf 7c 3e 40 5a c4 3d
       -0.060673006 0.8546522 0.24682276 0.09587526
000040 7b b0 04 bd bf 16 16 bd 60 e6 f7 be fd e6 48 3e
       -0.032394867 -0.036642786 -0.4841795 0.19619365
000050 2f 41 17 be 89 ac 89 3f 9d 5c 64 be bd c6 88 3f
       -0.1477096 1.0755779 -0.22300954 1.068565
000060 f3 e4 ed 3e 61 6a 1a bf 47 b9 60 bf a2 e5 d7 bc
       0.46463737 -0.6031857 -0.8778271 -0.026354615
000070 22 50 55 bf 07 c6 36 bd dc 54 5d 3f 9e 4d 21 3f
       -0.833254 -0.044622447 0.8645761 0.6300906
000080 e5 51 80 3f 52 3f 00 bf 55 69 0c 3d bb 8e 43 3e
       1.0024992 -0.5009662 0.03428014 0.19097416
000090 92 a1 05 3f a3 5d 53 be 61 42 06 3f c3 20 8f be
       0.5219966 -0.20641188 0.52445036 -0.27954683
0000a0 d9 86 df be 11 32 2f be 30 99 bc bd c2 76 8a 3e
       -0.43657568 -0.17108943 -0.09208906 0.2704373
0000b0 f4 99 f5 be e4 9b 3e be b5 ad 94 3d 96 84 94 bf
       -0.4796902 -0.18614155 0.072596945 -1.1602962
0000c0 f8 be 59 bf ed 99 4b 3f ca 1a de 3e 80 9b 83 be
       -0.8505702 0.7953175 0.43379813 -0.25704575
0000d0 ee 47 cc 3e 86 0d 36 3e de 65 c4 be a8 bb 48 bf
       0.39898628 0.17778596 -0.38358968 -0.7841134
0000e0 86 a9 03 3e be 89 1b bf 53 de 6c bd 12 65 90 be
       0.12857637 -0.6075705 -0.057829212 -0.2820211
0000f0 4e a2 49 3e ca 15 a0 be 52 6e dc be 55 f9 a0 3f
       0.1969082 -0.31266624 -0.43052918 1.257609
000100 4f 68 b9 be bc 95 51 bf 95 39 e1 be 9e ec dc 3e
       -0.36212394 -0.818691 -0.43989244 0.43149275
000110 d1 86 10 be 9c c2 a0 3e bb 4d 20 be eb f5 1c 3e
       -0.14113928 0.31398475 -0.15654652 0.15328185
000120 c9 cc 82 3c f4 87 1a 3d de bf 27 bf f5 b1 2f 3e
       0.01596679 0.03772731 -0.6552714 0.17157729
000130 5e 3b 17 3f fe bd f0 3e 34 99 17 bd b3 5f 0f 3f
       0.5907496 0.47019953 -0.03701134 0.560054
000140 e8 c6 0c bf 79 ce 16 3f ad 57 cf 3e 35 1a 94 3f
       -0.54991007 0.589088 0.4049658 1.1570498
000150 0b 64 60 be 91 14 8e 3e e7 9e 2a 3e 74 cb 8e be
       -0.21913163 0.27750066 0.16662179 -0.27889597
000160 63 b6 83 be d6 fb 11 3d c4 8c 0b bf 96 c6 4d 3f
       -0.25725088 0.03564056 -0.54511666 0.80381143
000170 f8 90 11 3f c8 a7 4c 3e c9 75 ca 3e 56 8e 99 3e
       0.5686183 0.19985878 0.39542988 0.29991406
000180 11 87 43 3f 79 56 32 be fa 62 c2 3f 4f 82 58 bf
       0.7637797 -0.17415799 1.5186455 -0.84573835
000190 4d f5 c5 3f 24 b8 0f 3f 4f f4 00 3f 32 7b c9 bd
       1.5465485 0.5614035 0.50372785 -0.09837951
0001a0 bf 62 58 bf ca ad c7 be 57 19 47 3e ee f5 0d 3f
       -0.84525675 -0.38999778 0.1944326 0.55453384
0001b0 5d 76 a3 bf 35 cb a8 bc 0b c6 e4 be 62 a0 0a be
       -1.2770497 -0.02060471 -0.44682345 -0.13537744
0001c0 82 09 2a bf be 38 be bf 6d 71 2b 3d fd 03 21 3e
       -0.6642076 -1.4861066 0.041856218 0.15724178
0001d0 a5 55 3d bf 08 fc af 3e b7 8a d2 be 23 0b e1 bd
       -0.7395881 0.34371972 -0.41121456 -0.10988452
0001e0 69 d3 e1 be d0 d4 f9 be 5f 73 03 bf 6e ac ea be
       -0.44106606 -0.48795176 -0.5134792 -0.45834678
0001f0 54 f7 00 3f f5 e5 8e 3d 9d 78 56 bf 0e 17 99 bf
       0.5037739 0.069774546 -0.8377779 -1.1960161
000200 8f 06 3a be 91 69 93 3f f1 9b 45 3e e4 19 33 bf
       -0.18166564 1.1516591 0.19297768 -0.6996138
000210 4c 31 7b be 8f 7f ef 3e b9 b3 31 bf c3 e8 19 bf
       -0.24530524 0.46777007 -0.6941486 -0.6012079
000220 37 3f 7f 3e b1 b6 65 3d e3 6f 3a 3d 44 38 15 bf
       0.24926458 0.05608243 0.04551686 -0.5828898
000230 3e 10 8b be 4b d0 9c be 58 d4 26 bf 7d bb c9 3e
       -0.2716083 -0.30627665 -0.6516776 0.39400855
000240 7e 73 a3 bf 51 2d e0 3d 4e 0c 07 3e 35 f4 f9 be
       -1.276962 0.109461434 0.13188288 -0.48819128
000250 7e 43 57 bd 98 ee aa 3e 20 15 bc be f7 d3 1d 3e
       -0.0525546 0.33385158 -0.36734867 0.1541289
000260 63 57 03 3f 2b f8 40 bf e3 36 22 3e 0c 34 fd be
       0.51305217 -0.75378674 0.1584125 -0.4945377
000270 c4 d1 b3 3e ea 35 b2 3d 7a 55 22 3f 5d f0 cc 3c
       0.35120976 0.087016895 0.63411677 0.025016958
000280 2c 88 45 3f f3 c7 31 be c2 a5 ae 3f 51 81 b6 3d
       0.77160907 -0.17361431 1.3644335 0.08911384
000290 2e 49 59 3e 3c 01 f1 3e 6f 2e 5a bf 4c 88 b3 3d
       0.21219322 0.47071254 -0.852271 0.08766231
0002a0 84 8d d5 be 0b 81 3b bd 20 ca 54 3f 36 25 1e bf
       -0.4170953 -0.04577736 0.8312092 -0.6177553
0002b0 46 46 ee bd d6 a7 88 bf 0d 62 07 be bd 56 d6 3e
       -0.11634497 -1.067622 -0.13220997 0.4186305
0002c0 5f 12 b4 3e a0 ca 7a 3e 85 f1 27 bf 07 ab 9f 3f
       0.35170266 0.24491358 -0.65602905 1.2474068
0002d0 11 0d 0d bf b7 94 09 bf 1c a1 9c be 88 70 6e be
       -0.5509806 -0.53742546 -0.30591667 -0.23285115
0002e0 92 cc 75 be c5 7f 7f 3e b7 1b e3 3d 4f e5 de bd
       -0.24003819 0.24951084 0.110892706 -0.10883581
0002f0 76 ee c0 3e d3 2b ab 3f cc eb a5 3d 22 09 81 3f
       0.3768193 1.3372749 0.08101615 1.0080912
000300 ae 2d c8 3d 69 4d 4b 3f a3 82 6c be 75 bb cd 3e
       0.09774338 0.79414994 -0.23096709 0.4018208
000310 72 bb 48 be 00 a5 43 3f 33 98 b6 be 62 c5 90 3f
       -0.19602755 0.76423645 -0.35662994 1.1310236
000320 1a 03 15 3f 47 b1 4b 3f 64 85 47 bd 2b ed 0a 3f
       0.5820786 0.7956738 -0.048711196 0.5426814
000330 19 4f 98 be 0c 71 a6 3d b4 c0 18 be 15 a3 8e be
       -0.29747847 0.08127031 -0.1491726 -0.27858797
000340 5f bc a6 3d 28 46 01 3c 63 2c a8 3d 91 ce 51 be
       0.08141398 0.007890262 0.08211591 -0.20488955
000350 86 a6 8a bf 0a d1 c5 be b3 05 da be c1 f1 4d bf
       -1.0832069 -0.38636047 -0.42582473 -0.8044701
000360 7d 3e ee 3e 4f 9e 0c bf 48 11 4f bd e2 07 57 3e
       0.4653205 -0.5492906 -0.05055359 0.20999101
000370 87 3f c2 3e 2d 3e 86 3e db 02 96 bf ae 29 aa bd
       0.37939093 0.2621931 -1.1719621 -0.08308731
000380 bc 72 2f 3f 5e ca 03 be 43 46 0a bf 21 5f 33 bf
       0.68534446 -0.12870166 -0.5401346 -0.7006703
000390 4f bb 8c 3f 60 0f bb 3d 90 6e ba be 45 d6 57 be
       1.0994662 0.09133792 -0.36412477 -0.21077831
0003a0 fe 42 6c 3e 48 b0 39 3f 9a 36 05 bf 0b 22 d2 3b
       0.2307243 0.7253461 -0.5203644 0.0064127496
0003b0 bc 98 04 3e 46 b2 c6 3d ed 3e 9c 3e e8 c7 32 bf
       0.12948889 0.09701972 0.3051676 -0.6983628
0003c0 33 be 32 3f 50 e4 23 be a1 24 8e 3e 3e 48 09 3e
       0.6982147 -0.16005063 0.2776232 0.13406464
0003d0 1a 01 c3 3e 7a cc a4 bc 58 ee a9 bf 38 2a e7 3e
       0.38086778 -0.020117033 -1.3275862 0.45149398
0003e0 be a1 0f 3f 46 f3 0a bf 3b c4 47 bf a8 56 71 be
       0.56106174 -0.54277456 -0.780338 -0.23568213
0003f0 69 a5 80 3e fe de 72 3e 43 38 5b be 6f ac 99 3d
       0.25126198 0.23717877 -0.21408181 0.07503592

fc1.bias f4 [128]
000000 17 6b 89 bf 2b fe 8c bf 67 55 67 bf 9b 3b 8b bf
       -1.0735806 -1.1015066 -0.9036469 -1.0877565
000010 17 0c c2 bf d0 bb 0e bf 1e 4a 74 bf 2c cc 7a bf
       -1.515994 -0.5575533 -0.95425594 -0.9796779
000020 77 7f a7 bf 1e 56 59 bf 38 8e 96 bf ac d3 13 bf
       -1.3085774 -0.8489703 -1.1762152 -0.5774486
000030 b2 2f 97 bf d2 5e 41 be 06 2d 4d 3e 4c 9e 69 bf
       -1.181143 -0.18883827 0.20036706 -0.91257167
000040 19 c3 9b bf 84 c1 3e bf 4d e0 5f bf 31 7b cb be
       -1.2168914 -0.7451403 -0.8745163 -0.39742425
000050 42 25 d5 bf f0 b0 b2 bf f3 be 98 3c 7e 9c 5b bf
       -1.6651995 -1.3960247 0.01864574 -0.85785663
000060 57 6a 16 bd 98 5d 86 be 01 0b c9 bf 64 81 ce be
       -0.036722507 -0.2624328 -1.5706483 -0.40333092
000070 80 59 89 bf b8 bf 45 bf f2 43 73 bf 63 24 81 be
       -1.0730438 -0.77245665 -0.9502555 -0.25223073
000080 75 32 5c bf aa 75 b5 bf 4e 80 d3 be 72 ce 6a bf
       -0.8601449 -1.4176533 -0.41308826 -0.9172126
000090 39 75 85 bf 86 f9 5b bf 19 58 ad be 6d 7c ec be
       -1.0426399 -0.8592762 -0.33856276 -0.4618868
0000a0 3b e9 0e bf 0c 2d 8e bf 1d 99 ef be e3 ba 71 bf
       -0.5582463 -1.1107497 -0.46796504 -0.9442579
0000b0 85 99 d2 bf b4 69 bc 3d 88 1c 97 bf 29 cb ad bf
       -1.64531 0.09199849 -1.1805582 -1.3577625
0000c0 59 cc b1 bf af 3d 83 be 6e f1 71 bf c3 5a a5 bf
       -1.3890487 -0.25632998 -0.9450902 -1.2918323
0000d0 fb c5 c3 bf af bc 95 bf 2b 95 a4 bf e8 c5 af bf
       -1.5294794 -1.1698207 -1.2858022 -1.3732271
0000e0 9f fd 89 bf 45 83 b3 be bb 72 7b bf 86 e7 73 bf
       -1.0780524 -0.35061088 -0.9822194 -0.9527515
0000f0 dc b5 b1 bf e5 9d fb be 87 60 89 bf e3 a2 14 bf
       -1.3883624 -0.491439 -1.0732583 -0.58061045
000100 52 27 67 bf 00 a9 ad bf d3 37 08 bf 4b 07 95 bf
       -0.90294373 -1.35672 -0.5321018 -1.1642851
000110 bf e8 95 be 69 df 2e bf 9f 7b 76 bf e5 72 98 bf
       -0.29279134 -0.68309647 -0.9628238 -1.1910063
000120 1e 28 04 bf 58 19 85 bf c0 72 4a bf af 89 73 bf
       -0.51623714 -1.0398359 -0.79081345 -0.95131963
000130 48 b9 84 bf 87 62 d7 be 46 d4 58 bf 2c b3 99 bf
       -1.0369043 -0.42067358 -0.84698904 -1.2007804
000140 ea c6 26 bf 89 37 88 be 1c 5a a7 3f c6 6e 8f bf
       -0.6514727 -0.2660487 1.3074374 -1.120568
000150 ce 2a 97 be 85 26 ae be 30 ac 3b bf 9a 3c 43 bf
       -0.29524845 -0.34013763 -0.7330961 -0.76264346
000160 bc df 71 bf 38 8a 16 bf f1 d5 62 bf 62 e3 77 bf
       -0.94482017 -0.58804655 -0.886077 -0.96831334
000170 6f 0a fa be c7 c3 7b bf 12 a0 a3 bf e9 de 9f bf
       -0.48836085 -0.9834561 -1.2783225 -1.2489902
000180 19 69 a2 bf 8a 61 55 bf d3 45 e2 bf 27 e3 90 be
       -1.2688323 -0.8335196 -1.7677559 -0.28298303
000190 55 75 44 bf fe 3a 0a 3e 1e bb 91 bf 92 76 67 bf
       -0.76741534 0.13499066 -1.1385229 -0.904153
0001a0 96 48 a4 bf d2 99 7f bf 55 18 96 bf cb 67 1f bf
       -1.2834651 -0.99844086 -1.1726176 -0.6226775
0001b0 76 72 cc be 26 1c 75 3f 8c 33 2b bf 8f 85 cf bf
       -0.39931077 0.95746076 -0.6687553 -1.6212634
0001c0 bd 0a 18 bf bd 8c a3 bf b8 00 ff be 61 9a 61 bf
       -0.59391385 -1.2777325 -0.49805236 -0.8812619
0001d0 87 ad 67 bf 47 35 06 bf 40 70 c9 be 18 e9 77 bf
       -0.90499157 -0.52425045 -0.39343452 -0.9684005
0001e0 59 ba 86 bf 62 e4 2a bf 0a 04 54 bf ba d7 4f bf
       -1.0525619 -0.66754735 -0.82818663 -0.8118855
0001f0 64 4a 96 3f 39 58 19 bf e5 c7 86 bf 26 1d 40 bf
       1.1741452 -0.5990024 -1.0529753 -0.75044477

fc2.weight f4 [128, 128]
000000 4f d6 30 be f3 56 a6 3e 8f 07 85 bf 51 9c 6e 3f
       -0.17269252 0.32488212 -1.0392932 0.9320727
000010 af 0f c5 3e cf 98 e9 be 92 a0 7f 3f d1 5b 2e bf
       0.38488528 -0.45624396 0.99854386 -0.6810885
000020 ea 83 9a 3f ab 34 d8 be 7f 34 91 bb e4 f6 69 bf
       1.2071507 -0.42227682 -0.004431307 -0.9139235
000030 f0 79 34 bf 4f 82 51 bf 46 ed b9 bd e0 69 a6 bf
       -0.7049856 -0.8183946 -0.090784594 -1.300106
000040 e4 cb b3 bf ac 48 09 bf 7f 99 63 3e 08 38 13 3f
       -1.4046597 -0.53626513 0.22226523 0.5750737
000050 c7 92 97 bd 45 b1 cb 3e 0a 5d eb 3e 1d 32 8a 3e
       -0.074010424 0.39783683 0.4596942 0.26991358
000060 b2 b5 23 be 28 5b 0a be 2e a2 88 bf 1e 1e 60 bf
       -0.1598728 -0.13511336 -1.0674493 -0.87545955
000070 7d 36 7f bf 17 3c 39 bf a9 d2 1e bd c4 dc 3c 3f
       -0.9969252 -0.72357315 -0.03877512 0.7377436
000080 71 07 45 3e 05 23 31 be b7 75 4b bd cb 2e 9c bf
       0.1924112 -0.17298515 -0.04967281 -1.220178
000090 5a ea fa be 7f 4f 8f bb 9c 83 cd 3e 50 55 9f 3e
       -0.4900692 -0.0043734903 0.40139472 0.31119776
0000a0 d9 e9 35 bf c6 c3 60 bf cd a2 e6 3e 57 ee b2 3e
       -0.7105995 -0.87798727 0.45046082 0.34947464
0000b0 26 d7 c3 3d 8f b9 b6 bf 76 61 83 3e 3d 21 05 bf
       0.09562521 -1.4275378 0.25660294 -0.5200384
0000c0 fa 6f 93 3f 1b d7 79 be 34 46 44 bf 54 f8 74 bf
       1.1518548 -0.24398462 -0.7666962 -0.9569142
0000d0 d8 3d 37 be e8 1a bd 3e f2 09 09 bf 80 88 47 3c
       -0.17894685 0.3693459 -0.535308 0.01217854
0000e0 cd 02 6c be 96 bc 8b bf cf 7c 32 bf 47 b2 87 be
       -0.23047943 -1.0916927 -0.6972169 -0.26503202
0000f0 2f 41 75 3f b7 25 da bd 25 53 d4 3e 42 74 ab be
       0.9580259 -0.10651725 0.41469684 -0.33487135
000100 36 96 01 3f bb c8 c7 3d f0 dd a5 3e 73 62 c8 be
       0.5061983 0.09755083 0.32395887 -0.3913761
000110 d9 09 5c 3f cc 4a 79 bf 55 41 2d 3e 29 ee 34 be
       0.85952526 -0.97379756 0.16919453 -0.17668976
000120 1c 67 30 bf c0 5e cf bd 84 0b 1a bf e2 5e f9 bf
       -0.6890733 -0.10125494 -0.6017382 -1.9482081
000130 09 43 f4 bf e1 15 95 3f 4c 26 95 3f b9 0c fb 3e
       -1.9082958 1.1647302 1.1652312 0.49033144
000140 9e 58 33 3e 16 d9 04 3d bf a8 8f bf c8 a4 04 3e
       0.17514274 0.03243359 -1.1223372 0.12953484
000150 c5 26 b7 bf da 59 8d bf f8 85 8c be 88 d6 ef be
       -1.4308707 -1.1043046 -0.2744596 -0.46843362
000160 c0 01 5e bf 49 89 8e be 70 b5 62 3d 6c 0d 47 3e
       -0.8672142 -0.27839115 0.055348814 0.19438714
000170 24 67 48 bf d5 93 4e bf bc 08 62 bf 29 77 46 3d
       -0.7828238 -0.80694324 -0.8829458 0.048453484
000180 e4 18 b4 3e 71 fb b5 be 4d fb 67 be fb e2 44 3f
       0.3517524 -0.35543397 -0.22654457 0.76908845
000190 ea 7f b4 be 35 bd e3 3d 65 30 b1 3e b3 6c 99 3f
       -0.3525384 0.11120073 0.34607235 1.1986297
0001a0 5b 88 26 bf 72 a4 11 be 2f 4b 18 3f d6 fa f0 bd
       -0.6505181 -0.14222887 0.5948972 -0.11766593
0001b0 2d 30 2f bf 51 42 cd be 5d fd 78 bd 82 59 50 be
       -0.68432885 -0.40089658 -0.0607885 -0.20346645
0001c0 bc dd 1d 3f d1 d4 f6 3e 2a 23 80 bf 11 2b 37 3e
       0.61666465 0.4820924 -1.0010731 0.17887522
0001d0 a0 f8 10 3f 60 57 29 bf 34 5f a8 3e 98 d8 92 bd
       0.5662937 -0.6614895 0.32885134 -0.07170218
0001e0 2e 9c 23 3d ef f2 a2 3f ac b2 1c be 61 d9 aa 3d
       0.039943866 1.2730387 -0.15302533 0.08342243
0001f0 d7 19 82 3d cc de f9 be 59 0b 61 bf 7d df 24 3e
       0.06352585 -0.48802793 -0.8790794 0.16100879
000200 6d 6b 48 bf 32 36 0a 3f 40 29 81 bf dd fa 71 3f
       -0.7828892 0.53988945 -1.0090714 0.9452341
000210 77 9c 8d be e6 5d ba 3e 5a 51 0a 3e f8 6b af be
       -0.27658436 0.36399764 0.13507596 -0.3426206
000220 61 4f f8 3d b9 04 fd bd 64 dd df 3e 8c e2 e9 bf
       0.12124515 -0.123544164 0.43723595 -1.8272262
000230 6d fb 1e bf ae 58 c0 be dc 7d 20 bf cf b0 92 bf
       -0.62102395 -0.37567657 -0.62692046 -1.1460208
000240 0e a2 87 be 2e 52 9e 3d bb f1 5a bf 17 99 93 3e
       -0.26490825 0.07730518 -0.855251 0.28827736
000250 2d 82 2f bf b6 ea ad 3e d1 e3 f3 be 3c 51 30 bf
       -0.6855801 0.33968133 -0.47634748 -0.68873954
000260 01 4c 21 bf b0 6e a3 3f ba a0 0f bf 60 41 20 c0
       -0.630066 1.2768154 -0.56104624 -2.5039902
000270 f2 66 29 be 93 19 b7 3e 7f 98 2d be c9 76 ce 3e
       -0.16543177 0.357617 -0.16952704 0.40325
000280 7c e8 ea 3d 16 fa 31 bf 4f 8d 00 be ff f2 91 bf
       0.11470124 -0.69522226 -0.12553905 -1.1402282
000290 54 03 13 bf f2 a5 88 bd 9a 08 c0 3d d0 68 24 3f
       -0.57426953 -0.066722766 0.093766406 0.6422243
0002a0 c6 f9 08 3f 4d f0 22 bf 05 8a ad bf 3e bd 68 be
       0.53506124 -0.6364792 -1.3557745 -0.2272844
0002b0 e0 57 33 be 7d b1 f9 3e e7 54 54 bf e1 c5 35 be
       -0.1751399 0.48768225 -0.8294205 -0.17751266
0002c0 ba 35 90 bf 10 c3 8e 3e b2 6b c8 be 99 9e f7 3e
       -1.1266396 0.27883196 -0.39144665 0.48363188
0002d0 19 05 bc 3e 37 b1 db 3c c7 fb 34 bf d8 d2 1b 3d
       0.3672264 0.026817901 -0.7069668 0.038042873
0002e0 81 1d 63 bf 4e 72 b2 3e 94 b4 c3 bc 78 b8 04 3e
       -0.88716894 0.34852833 -0.023889817 0.12960994
0002f0 6c 6b e5 3d 50 35 8f 3f 11 0d 98 3e 48 05 49 bf
       0.1120213 1.1188145 0.2969747 -0.78523684
000300 1a e2 85 3f 84 60 9f 3e 0e cc 8b bf d8 86 2e 3f
       1.0459626 0.31128323 -1.0921648 0.68174505
000310 8a b8 01 bd d4 e4 09 be ac 96 6f bf 43 b7 dc bf
       -0.03167013 -0.13466197 -0.9358928 -1.7243427
000320 f0 1b 27 3f 11 c7 98 3d 49 af 8a bf 2e 89 f7 be
       0.65277004 0.07459844 -1.0834743 -0.48346847
000330 40 b9 56 bf b0 1b e5 be f2 19 e7 3e 35 84 4b 3f
       -0.8387642 -0.44747686 0.45136982 0.79498607
000340 e9 d7 01 bf a3 90 61 bf 4d 01 fe be 72 91 6c be
       -0.5072008 -0.88111323 -0.49610367 -0.23102358
000350 5f 46 80 bf 8a 10 6d 3e c8 93 f2 be 3f c8 18 bd
       -1.0021476 0.2315084 -0.47378373 -0.037300345
000360 76 da 84 bf eb 78 63 bd f4 aa 7f bf f1 21 8a bf
       -1.0379169 -0.05553524 -0.9987023 -1.0791608
000370 12 d2 72 bd 44 06 49 bd 8e 9d f6 bf 78 06 d2 bf
       -0.05928237 -0.04907824 -1.9266832 -1.6408224
000380 47 e7 8c bf 13 cf 81 3e 1c bc 22 bf ec ca 8c bf
       -1.100808 0.25353298 -0.6356828 -1.0999427
000390 b0 55 de be f3 e4 89 bd 8a 4b fe be 98 44 ef bf
       -0.4342475 -0.06733122 -0.49667007 -1.8692808
0003a0 3b 25 19 c0 0a 2a cc 3f 19 07 7f 3f 76 8f 96 bf
       -2.3928974 1.5950329 0.99620205 -1.1762531
0003b0 bf 77 85 bf 8d 79 87 bf 63 f9 28 bf 5f bf 4d 3e
       -1.0427169 -1.0583969 -0.66005534 0.20092534
0003c0 c4 ee fc be 70 3e 26 bf b9 fa 62 bf 93 79 25 bd
       -0.49400914 -0.6493902 -0.8866382 -0.040399145
0003d0 0b ce 1a bf fe c3 c8 3e 91 94 a9 3e a9 30 ac 3d
       -0.60470647 0.3921203 0.3312116 0.08407719
0003e0 cb 14 30 bf 4b 10 16 3f 94 e9 e4 3c 26 d5 d9 bf
       -0.6878173 0.5861861 0.02794341 -1.7018173
0003f0 41 d0 20 3d 1d c5 79 3d 92 94 c2 3e 78 35 41 3f
       0.039261106 0.060978997 0.38003975 0.7547221

fc2.bias f4 [128]
000000 aa 3e f1 be f4 c6 94 be f4 c8 ba bf 10 6b b4 be
       -0.4711812 -0.2905804 -1.4592576 -0.35237932
000010 88 3a bc bd b6 bd 2c bf 4b e3 1a bf 67 38 21 bf
       -0.091908514 -0.67476976 -0.6050307 -0.6297669
000020 20 a2 77 bf 47 4f 23 bf 54 b5 38 be 7a 0e b2 be
       -0.9673176 -0.6379284 -0.18037921 -0.3477667
000030 6e d6 a5 bf 2e ba 9e be b4 a6 3d bf ab 22 d5 bf
       -1.2956064 -0.3100142 -0.74082494 -1.6651205
000040 99 03 e5 bf ce 70 2a bf c7 fd 3a bf bd 29 17 bf
       -1.7891723 -0.66578376 -0.73043483 -0.5904806
000050 c4 26 93 bf c1 f2 92 be 49 a4 83 be e7 f3 22 3e
       -1.1496205 -0.28700832 -0.25711277 0.15913354
000060 5d f1 82 bf e6 7d 0d c0 09 39 80 bf c1 8c cf be
       -1.0229908 -2.2108092 -1.0017406 -0.40537074
000070 57 ad cf be 89 03 48 bd dc c9 e1 be 42 9a d4 bf
       -0.40561935 -0.048831496 -0.4409932 -1.6609576
000080 b8 dd 64 bf 3e 69 de be 5e b7 0f c0 e1 fe c8 bf
       -0.89400816 -0.43439668 -2.2455668 -1.5702783
000090 79 f4 3a bf 3b 6d d1 3d 5d 12 6f bf bf a0 fb be
       -0.73029286 0.10225912 -0.93387395 -0.49146077
0000a0 5a 58 26 bf 73 18 c1 bf 20 40 8d bf 00 17 44 bf
       -0.64978564 -1.5085586 -1.1035194 -0.76597595
0000b0 89 24 2c bf a2 11 9f bf e1 41 10 3e 97 51 39 3e
       -0.6724325 -1.2427256 0.14087631 0.1809753
0000c0 f0 47 6f bf d1 f7 0d be 33 0a af bf ce d5 28 bf
       -0.9346914 -0.13864066 -1.3674988 -0.6595124
0000d0 f2 84 05 bf ed e6 af bf c3 a0 03 bf 11 bf b1 bf
       -0.52155983 -1.3742348 -0.5141718 -1.3886434
0000e0 41 0d 03 bf 9d ba 4d bf 74 f1 da bf be 11 c7 be
       -0.511921 -0.80362874 -1.7104936 -0.38880724
0000f0 77 74 fd be 58 5c 89 bf b0 75 89 be ee 18 63 bf
       -0.49502918 -1.0731306 -0.268476 -0.88709915
000100 41 8e a6 bf 87 29 87 3e 28 0d 8d bf ab e7 09 be
       -1.3012162 0.2639887 -1.101964 -0.1346728
000110 4b 68 ee bf bb f4 1a bf 98 15 4c bf 84 42 3c bf
       -1.8625578 -0.6052968 -0.7972045 -0.73538995
000120 1a 82 45 be c6 76 ff be d3 6e d8 be 57 6c 88 bf
       -0.19287911 -0.49895304 -0.42272052 -1.0658063
000130 ae c2 3e bf 56 67 1d bd f2 90 75 bf 8c 40 f7 be
       -0.7451581 -0.038428627 -0.95924294 -0.48291433
000140 a1 a9 af bf 6b 05 06 3f 79 d9 8a bf 2e 68 ec bf
       -1.3723642 0.5235202 -1.0847617 -1.8469293
000150 54 05 bf bf 50 84 5c bf 39 6c 94 3d ea fa 79 bf
       -1.4923501 -0.8613939 0.07247204 -0.9764849
000160 47 f0 db be c7 e3 3e bf 9d aa cc be e9 7a bb bf
       -0.42956755 -0.7456631 -0.39973918 -1.4646884
000170 bc 33 68 be a6 9f 66 bf 27 c6 17 bf bf 2e 0f bf
       -0.22675985 -0.90087354 -0.5928673 -0.55930704
000180 8a c1 44 bf 9b 6e c0 3e 55 9d 10 bf a5 19 41 bf
       -0.7685782 0.37584385 -0.5649007 -0.75429755
000190 20 e5 17 bf 81 03 8c bf cf 7d 23 bf a0 2e 97 bf
       -0.5933399 -1.0938569 -0.63863844 -1.1811104
0001a0 21 ff 54 bf d3 d3 65 bf 22 5e fa be 47 9a c9 3d
       -0.83201796 -0.89776343 -0.48899943 0.09843879
0001b0 c8 1f 5e bf 6c eb da bf ff f8 04 bf 91 15 8e bf
       -0.86767244 -1.7103095 -0.5194244 -1.1100332
0001c0 a5 34 25 bf 89 7f b0 bc 03 f8 38 3e 06 61 2e bf
       -0.64533454 -0.021545189 0.18063359 -0.68116796
0001d0 be 98 1c bf 00 d3 74 bf 9a 21 aa bf c0 e8 94 bf
       -0.61170566 -0.9563446 -1.3291504 -1.163353
0001e0 f3 ec 4d bf 41 7a 93 3d 10 28 9f bf 19 dc b3 be
       -0.8043968 0.072010525 -1.2434101 -0.3512886
0001f0 e1 16 6c bf f2 f0 8f bf 3a 5f c6 bf 60 ca 2e bf
       -0.9222241 -1.1245406 -1.5497811 -0.6827755

fc3.weight f4 [4, 128]
000000 42 dd 5f be 30 bc b1 3e d0 0a 62 3e 14 06 e3 3d
       -0.21861747 0.34713888 0.22074437 0.11085144
000010 93 6b c9 3e 6b 74 64 3d 10 1f 2e bf 50 78 89 be
       0.39339885 0.055775087 -0.6801615 -0.26849604
000020 2d f0 7b 3f 41 5b 87 be 92 92 e0 bd 8e 26 5e 3e
       0.98413354 -0.2643681 -0.10965456 0.21694395
000030 b8 09 50 3e d2 e8 f9 be b5 c1 68 be 91 d5 83 3e
       0.20316207 -0.4881044 -0.22730143 0.25748876
000040 ea 03 3f 3f d5 73 71 bf 42 f5 e8 3e 9e 71 aa bf
       0.7461535 -0.9431737 0.45499617 -1.3315923
000050 ae f8 34 bd 61 d1 8d 3e 18 9b 9c 3e 64 45 de be
       -0.044182472 0.27698806 0.30587077 -0.43412316
000060 cc 4e 23 be f2 6a 72 3e 92 3c 8b bd b6 fb 3f be
       -0.15948027 0.23673609 -0.06798662 -0.18748364
000070 b6 dc 81 bc 90 2a 02 be 7a d5 35 3d 6e cb 68 3e
       -0.015852313 -0.12711549 0.04439304 0.22733852
000080 b4 56 14 3e 23 f6 45 3e bc 9a 72 bd 60 c5 e1 bd
       0.144862 0.19332175 -0.059229597 -0.110239744
000090 73 e2 93 3f 66 21 64 be 6e 1f f9 be 05 b6 e5 bd
       1.1553482 -0.22278365 -0.4865679 -0.11216358
0000a0 0b c7 02 3e 96 0a 4d 3f a1 0a fe bf db 82 32 3e
       0.12771241 0.8009428 -1.9846994 0.1743273
0000b0 90 11 8c be ab ee 21 3f c6 94 19 be 49 77 8f 3e
       -0.2735715 0.63254803 -0.14998159 0.28020695
0000c0 02 28 99 3d 45 4f f1 3d 8b 6b 11 3e 5d 92 52 be
       0.07478334 0.117826976 0.1420118 -0.20563646
0000d0 11 2c 81 3f 82 54 1e bd dc b5 9d 3e f4 9d 4f be
       1.0091573 -0.03865481 0.3080281 -0.20275098
0000e0 27 fa 19 3e c6 4c d6 3d aa a7 b7 be 2d 16 bd be
       0.15036832 0.10463862 -0.35870105 -0.3693098
0000f0 af 9f 4f 3e 9a 85 dc 3e 4c 11 ac 3d 14 49 de 3d
       0.20275758 0.4307068 0.084017366 0.10853782
000100 e4 e7 26 3e ca ec 23 be 82 fa d0 3e 2e 64 0e 3e
       0.16299397 -0.16008297 0.40816122 0.13905403
000110 81 4e 15 be 9c e8 14 bd 23 b3 82 3e da a8 e0 3d
       -0.14580728 -0.036354646 0.25527295 0.10969706
000120 be 2d af 3d 34 2b 31 3d df 5b a1 3b 65 3c 60 be
       0.085536465 0.043254092 0.004924282 -0.21898039
000130 3d 47 27 be 31 0f 9d bd 85 80 a6 be 02 79 41 3e
       -0.16335769 -0.07668913 -0.32519928 0.18893817
000140 4b 24 d9 3e 81 a9 03 3d 7e a6 04 3f 54 d0 8f bd
       0.42410502 0.032144073 0.51816547 -0.07022157
000150 10 4a 92 bf d6 5c 55 3d c2 56 9b 3e 77 a5 9a 3e
       -1.1428852 0.05209049 0.30339628 0.30204365
000160 ba c6 07 3f 88 9a 98 3e 0f 0c 18 bf 9c 25 d6 bd
       0.5303761 0.29805398 -0.593934 -0.10456392
000170 50 af 86 3e c3 11 bc 3d e0 29 fd 3e 27 1a 04 3c
       0.26305628 0.09183075 0.4944601 0.008062876
000180 dc 01 d2 be e6 38 e3 bc 97 7a 53 3e 96 f5 01 3d
       -0.41017044 -0.027737092 0.20652233 0.03172835
000190 41 57 b1 bc 88 99 80 bd d4 ac 13 be 63 ef 28 3e
       -0.021648051 -0.06279284 -0.14421397 0.16497569
0001a0 02 88 31 3e da fb a0 be 5e b9 4f be 86 e5 51 bd
       0.17337039 -0.31442147 -0.20285556 -0.05124428
0001b0 05 f1 00 3b a0 93 e1 3e bc 61 bb be 94 a8 c4 be
       0.0019674909 0.4405794 -0.36598003 -0.38409865
0001c0 59 4b 84 be ab 60 11 3e 56 43 01 bf 95 eb 11 3f
       -0.25838736 0.14197032 -0.5049337 0.57000095
0001d0 d9 0a ca 3d 13 be 89 bf bf 80 bb 3e 41 e3 a5 be
       0.0986535 -1.0761131 0.36621663 -0.32399943
0001e0 b2 c9 c6 bf ac cc 08 3e 66 93 9c bd f5 14 dd bd
       -1.5530303 0.13359326 -0.076453015 -0.10795013
0001f0 f3 ea 1a be e6 28 77 be 26 c9 85 3f a3 37 87 be
       -0.15128689 -0.24136695 1.0452011 -0.26409635
000200 ed 5c 66 3f f9 da a3 3e 2b ae 34 3f bb eb a1 bf
       0.89985543 0.32003 0.7057826 -1.2650064
000210 3c 57 d1 be d2 2f 38 3f c0 f6 7e be ac 17 29 be
       -0.40886867 0.7194797 -0.24898815 -0.16512936
000220 a4 a3 00 3e d7 57 4a bf 1b e0 4a bf c0 86 0c bf
       0.12562424 -0.7904028 -0.7924821 -0.5489311
000230 e6 23 81 3e 53 97 3a bf be 14 0e bf 29 3f c6 be
       0.252227 -0.7288715 -0.555004 -0.38720062
000240 fe 01 fa 3f e2 64 83 3f d9 41 cb 3d 0a 6a d6 3e
       1.9531858 1.0265162 0.09924669 0.41877776
000250 33 86 29 3e 7d 05 a5 be 90 05 a7 be 9f 91 06 bf
       0.16555099 -0.3223075 -0.3262143 -0.5256595
000260 a3 24 a8 bf c4 c6 08 3f f3 e7 0e 3d 0c aa 56 bf
       -1.3136181 0.5342829 0.034889173 -0.8385322
000270 77 d5 28 be 22 ab 68 3f 98 84 48 3f 9b af d1 be
       -0.1648768 0.9088613 0.7832732 -0.4095429
000280 66 e7 9a 3f 92 6f b3 3f b2 0c dd be d3 76 b5 3f
       1.2101867 1.4018424 -0.43173748 1.4176887
000290 fc d7 e4 3e 5b bf 2b bf 52 9e 19 bf 32 41 85 be
       0.44696033 -0.6708886 -0.600072 -0.26026303
0002a0 e2 a3 13 bf 8b fb 36 bf c1 d2 7f 3f 2e c6 b8 3f
       -0.5767194 -0.71477574 0.9993096 1.443548
0002b0 30 24 28 bf 1e 1c 62 bf 7d 9c 95 bf 2e 7c aa 3c
       -0.6568022 -0.88324153 -1.1688381 0.020811167
0002c0 99 e1 29 be e6 30 42 3f 08 45 9b bf 29 44 68 3f
       -0.16589965 0.75855863 -1.2130442 0.90729004
0002d0 6b bd 30 be 3e c4 15 3f 7e 59 d4 3e 14 db 76 3e
       -0.17259757 0.58502567 0.41474527 0.24107009
0002e0 e2 78 65 3f ae 60 d4 bf 9a 34 8b bf fa e2 80 3f
       0.8963758 -1.6592004 -1.0875428 1.0069268
0002f0 21 92 86 3f 67 9b bf 3f 58 87 82 3f bc 71 14 bf
       1.0513345 1.49693 1.0197554 -0.57986045
000300 74 ee 1a 3f ce 1e bc be e9 41 b3 be de 01 fa 3e
       0.605201 -0.36742252 -0.35011223 0.4882955
000310 39 3e 09 bf c0 78 83 3f bd 48 a7 3f b1 d7 9e 3f
       -0.5361057 1.0271225 1.3069073 1.2409574
000320 35 af 94 bf a0 3d a3 3f cb 89 2c bf 18 78 a7 be
       -1.1615969 1.2753181 -0.67397755 -0.32708812
000330 dd a2 30 3f b7 64 b1 3e 87 65 c9 3f 94 14 f5 bf
       0.6899851 0.34647152 1.5734109 -1.9146905
000340 4c 7b 09 3e 20 30 0e 3f cb 26 30 3f 88 ac 31 3f
       0.1342594 0.5554218 0.68809193 0.69403887
000350 4e f0 b8 3e f6 28 87 3e 7b 43 d5 3e f4 8d e1 3e
       0.36120838 0.26398438 0.41653046 0.44053614
000360 13 37 c3 3e 3d 57 79 3e 43 a5 4c bc b6 79 8f 3f
       0.38127956 0.24349685 -0.012490573 1.1209018
000370 9b e6 40 3f 1c 2a 32 3f c5 97 5d bf e9 d3 d9 3e
       0.75351876 0.69595504 -0.86559707 0.42544487
000380 44 3c fe be 13 b1 c7 3e fe 9a b5 3f 60 66 f5 be
       -0.49655354 0.39002284 1.4187925 -0.47929668
000390 2a 3a b9 bf 73 ff 80 be 4e 68 2e 3f f3 30 2d be
       -1.4470875 -0.25194892 0.68127906 -0.16913204
0003a0 71 a4 c8 bf 41 02 65 bf 16 42 7b 3f 07 93 07 3f
       -1.5675184 -0.89456564 0.98147714 0.5295872
0003b0 f4 d1 3d 3f 1c 9a cd be b4 fe 83 3e a7 dd 00 c0
       0.7414849 -0.4015664 0.2578026 -2.0135286
0003c0 43 3e 91 bf df d0 2f 3e 8a e4 a1 bf e2 ec 15 3d
       -1.1347126 0.17169522 -1.264787 0.036602862
0003d0 20 b7 08 bd 65 09 35 3d 6a f1 4c bd d6 fa a6 3e
       -0.033377767 0.044198412 -0.050034918 0.32613248
0003e0 cd bc 94 3f bb 54 c2 bf 57 37 0b 3e 79 6c 77 bf
       1.1620117 -1.5182108 0.13595329 -0.9664989
0003f0 40 f7 0e 3f 72 3c d6 3e 51 62 c6 be c9 0f b7 3e
       0.55846024 0.4184299 -0.38746884 0.3575423

fc3.bias f4 [4]
000000 54 d5 4c bd 6d 42 16 3e e9 75 1b 3e a0 d7 6a 3e
       -0.050008133 0.14673777 0.15181698 0.22933817
