weights/checkpoint_critic.pth (torch_old, 88092 bytes, 9 tensors)

bn1.weight f4 [33]
0	0x3ed2d970	0.41181517
1	0x3e64b660	0.22335196
2	0x3eb7d7cb	0.35906824
3	0x3e108989	0.14114965
4	0xbcbd11c1	-0.023079755
5	0x3e037afb	0.12839882
6	0x3bd1a085	0.0063973092
7	0x3d149f82	0.03628493
8	0x3d95a4d4	0.07306829
9	0xbd317ea2	-0.043333657
10	0x3d872b63	0.06600072
11	0x3d73b234	0.05949612
12	0x3d6ac537	0.057316985
13	0x3f50858b	0.8145377
14	0x3ea80c03	0.32821664
15	0x3f39fd4f	0.72652143
16	0x3d550a9a	0.052012064
17	0x3df70b12	0.12062658
18	0x3dde4800	0.10853577
19	0x3db90d24	0.090357095
20	0x3d4e56b5	0.05037566
21	0x3d344e54	0.044020012
22	0x3ce4c4f0	0.027925938
23	0x3e99908a	0.29993087
24	0x3e53cf92	0.2068465
25	0x3e83e522	0.25760752
26	0x3f27efe6	0.6560043
27	0x3e4c2604	0.19936377
28	0x3f2491f5	0.6428521
29	0x3bc9dd80	0.006160438
30	0x3f739914	0.95155454
31	0x3d9a2500	0.075265884
32	0x3f142f67	0.5788483

bn1.bias f4 [33]
0	0xbd06f3ea	-0.03294746
1	0xbd445168	-0.047929198
2	0x3def9e25	0.117000856
3	0x3cb5aeb5	0.022178033
4	0xb9d588a8	-0.00040728343
5	0x3b7a8ae9	0.003822977
6	0x3c43cd05	0.011950736
7	0x3bc41c44	0.005984815
8	0xbcb4d67e	-0.022074934
9	0xbcb07ef7	-0.021544917
10	0x3b8f394e	0.004370845
11	0x3c1aa291	0.009438173
12	0x3c3dc6b8	0.011583023
13	0xbc431d36	-0.01190882
14	0x3aa8e5bf	0.0012885852
15	0xbd26c7f9	-0.040718053
16	0x3b249e9f	0.002511896
17	0xbb837c4e	-0.004012621
18	0x3cdec274	0.027192332
19	0xbd36e817	-0.044654932
20	0x3bea577c	0.007151542
21	0x3c189e5d	0.0093151005
22	0xbbd06a2f	-0.0063603143
23	0x3b1693c2	0.0022976254
24	0x3d36a752	0.044593163
25	0x3b9f0d65	0.0048538917
26	0xbc875852	-0.016521607
27	0x39b7fac0	0.00035091303
28	0xbdaf94b4	-0.08573285
29	0xbb704fdb	-0.0036668691
30	0x3935ed6b	0.0001734995
31	0xb8a7b7f1	-7.997442e-05
32	0x3c40f1c8	0.011776395

bn1.running_mean f4 [33]
0	0x3b72bde2	0.0037039449
1	0xc0149c23	-2.3220298
2	0xbe8b054c	-0.2715248
3	0x3f525587	0.82161754
4	0x3b917c27	0.004439849
5	0xbd366915	-0.044533808
6	0xbd30d2ac	-0.043169662
7	0x3c44706d	0.011989695
8	0xbc2e970e	-0.010656131
9	0xbb0252dc	-0.0019885814
10	0xbcc3bce0	-0.023893774
11	0xbd15fed2	-0.03661997
12	0xbbc63e37	-0.006049897
13	0x3e4d8846	0.20071515
14	0xc010de5e	-2.2635722
15	0xbf068c1d	-0.52557546
16	0x3c24f91a	0.010069156
17	0x3bcb0575	0.006195719
18	0xbcae62e9	-0.021287398
19	0xbe48dcf9	-0.19615544
20	0xbc837027	-0.01604469
21	0x3d406720	0.046973348
22	0xbd949f25	-0.07256917
23	0x3d6d6c33	0.057964515
24	0x3c946885	0.018116245
25	0x3d4642ac	0.048403427
26	0x3eb697d4	0.3566271
27	0xbf7ffffc	-0.99999976
28	0xbea014ef	-0.3126597
29	0x00000000	0.0
30	0x3f7ffffc	0.99999976
31	0x00000000	0.0
32	0xbd21b4b6	-0.03947898

bn1.running_var f4 [33]
0	0x4097ebae	4.7475195
1	0x3f217562	0.63069737
2	0x40a75512	5.2291346
3	0x3db22597	0.08698576
4	0x3da4e845	0.080521144
5	0x3ce1085f	0.027469812
6	0x3e011206	0.12604532
7	0x3ea97891	0.33099797
8	0x3d8bdb53	0.06828942
9	0x3ddb74da	0.10715647
10	0x400728a0	2.1118546
11	0x3fae24ff	1.360504
12	0x402501a6	2.5782256
13	0x41a45973	20.543676
14	0x40156065	2.3340085
15	0x41c101f3	24.125952
16	0x3de1f1c9	0.11032445
17	0x3eae6d5d	0.34067813
18	0x3db649b8	0.089007795
19	0x3ed8cd8c	0.4234432
20	0x3ff1d2dc	1.8892474
21	0x3f393bc6	0.7235683
22	0x3f22263e	0.633396
23	0x40dd4cd0	6.9156265
24	0x409693f7	4.705562
25	0x40ffb270	7.990532
26	0x41f60b1a	30.75542
27	0x00000004	6e-45
28	0x420413c8	33.019318
29	0x00000004	6e-45
30	0x00000004	6e-45
31	0x00000004	6e-45
32	0x3e8555dd	0.2604207

fcs1.weight f4 [128, 33]
0	0x3dcce2de	0.10004209
1	0x3f50ab15	0.8151105
2	0xbf23d884	-0.6400225
3	0x3d68ecd1	0.05686647
4	0xbd668010	-0.056274474
5	0xbf030ac5	-0.5118831
6	0x3e84a8e3	0.259101
7	0x3ec62bc3	0.38705263
8	0x3e094287	0.13404284
9	0xbe5bd4d2	-0.21467903
10	0x3e424e67	0.1897522
11	0x3f8406c2	1.0314562
12	0xbf5809af	-0.84389776
13	0x3db24b9f	0.0870583
14	0xbea3bc2d	-0.31979504
15	0x3cfc3e5d	0.030791456
16	0xbe5a1794	-0.21298057
17	0xbde7d48f	-0.11319839
18	0xbf0df22d	-0.55447656
19	0x3ed56bd6	0.41683835
20	0xbdb15da8	-0.08660442
21	0xbe1e0247	-0.15430556
22	0xbe5bcfcc	-0.21465987
23	0x3d0460b4	0.032318786
24	0xbdc6eef0	-0.097135425
25	0xbe807b33	-0.25093994
26	0xbf2399dd	-0.6390665
27	0x3db3e299	0.087834544
28	0x3e020dc3	0.12700562
29	0xbe755d37	-0.2396134
30	0x3d26b31f	0.040698167
31	0xbda95e3f	-0.08269929
32	0xbd736924	-0.05942644
33	0x3ec7e014	0.39038146
34	0x3e67ebb5	0.22648509
35	0x3f2e4bda	0.6808449
36	0x3e83f0ff	0.25769803
37	0xbe33257b	-0.17494766
38	0xbe3e9345	-0.18610866
39	0x3e9b7997	0.30366203
40	0xbed33d5c	-0.4125775
41	0x3e30fb69	0.17283405
42	0x3e9e9fae	0.309812
43	0x3de9b62a	0.11411698
44	0x3f898368	1.0743227
45	0x3f7e2127	0.99269336
46	0xbb79a7f5	-0.0038094495
47	0x3dceccc0	0.10097647
48	0x3d16c4be	0.03680872
49	0xbe8674d6	-0.26261014
50	0xbe9bf269	-0.30458382
51	0x3e367703	0.17818837
52	0xbd8fded0	-0.0702492
53	0xbde8fb2d	-0.11376033
54	0xbe57e416	-0.21083102
55	0xbe95a3bf	-0.2922649
56	0x3d6aefab	0.05735747
57	0x3e46ba33	0.19406967
58	0x3e8b10ec	0.27161348
59	0x3e9415ca	0.28922874
60	0xbd9bce09	-0.076076575
61	0xbe9a4f07	-0.30138418
62	0xbe0275bc	-0.12740225
63	0x3dac4ac3	0.08412697
64	0x3dfc27e6	0.123122975
65	0x3edf5065	0.43616024
66	0x3e1ab449	0.15107836
67	0x3edb81df	0.4287252
68	0xbeac21a2	-0.3361941
69	0x3f39329b	0.7234284
70	0xbe2a1673	-0.16610126
71	0xbf26e4d2	-0.651929
72	0xbe843d2e	-0.25827926
73	0x3ede3d16	0.4340598
74	0x3e86e68d	0.2634777
75	0xbd525d4f	-0.051358517
76	0xbe9a9589	-0.3019221
77	0x3e48877f	0.19582938
78	0xbf7770c0	-0.9665642
79	0xbd69c444	-0.05707194
80	0x3f09cc90	0.5382776
81	0x3c57e11d	0.01317623
82	0x3ccd3b8a	0.025052804
83	0x3e599d2e	0.21251366
84	0xbf2b6677	-0.66953224
85	0x3bc392b5	0.0059684166
86	0xbee6009b	-0.44922337
87	0xbf0a536c	-0.5403354
88	0xbe4f812f	-0.20264123
89	0xbe85f787	-0.2616541
90	0x3ec70932	0.38874203
91	0xbdd65a7e	-0.10466479
92	0x3eae50e5	0.34046093
93	0x3d25d83e	0.040489428
94	0x3d4ff938	0.050774783
95	0xbc93fb58	-0.018064186
96	0xbd606dd8	-0.054792255
97	0xbc4b4822	-0.0124073345
98	0xbf0717ee	-0.5277089
99	0xbe7c20bd	-0.24621864
100	0x3dadf8cf	0.08494722
101	0x3ed20735	0.41021124
102	0xbe67607a	-0.22595397
103	0x3e01a2cb	0.12659757
104	0xbe8f7628	-0.28019834
105	0x3d41e7a9	0.04734007
106	0x3e8853aa	0.2662633
107	0xbebe341a	-0.37149125
108	0x3dbfa77b	0.09358116
109	0xbd9d4b92	-0.076804295
110	0x3ed6f34f	0.41982505
111	0xbe0089e5	-0.12552603
112	0x3edd69d2	0.43244797
113	0xbab10bcf	-0.0013507548
114	0xbf348d6d	-0.705283
115	0xbe4e2376	-0.20130715
116	0x3ecdebe8	0.40219045
117	0xbe730d98	-0.23735654
118	0xbe56bebd	-0.20971198
119	0xbe05762b	-0.13033359
120	0xbdf49b5d	-0.11943696
121	0x3e157baa	0.14597955
122	0xbd911621	-0.07084299
123	0xbebe61bd	-0.37183943
124	0xbeb03646	-0.34416407
125	0xbf23ba7b	-0.6395642
126	0x3d9e37f6	0.077255175
127	0x3e435832	0.19076613
128	0xbd17e0ab	-0.037079494
129	0x3c2d35d8	0.010571919
130	0xbd4d8ddc	-0.050184116
131	0x3f54c8e8	0.8311906
132	0xbf254a5a	-0.64566576
133	0x3e9f2bbc	0.31088054
134	0xbe963057	-0.29333755
135	0x3eda3d01	0.42624667
136	0x3d6592bb	0.056048136
137	0x3cc5d4ae	0.024149265
138	0xbe990b9e	-0.29891676
139	0xbdc97cc5	-0.09838251
140	0x3ec94b08	0.39315057
141	0x3f868f17	1.0512418
142	0xbf6510f2	-0.8947898
143	0x3e741b33	0.238385
144	0x3ea9165f	0.3302488
145	0x3ee1cb89	0.44100598
146	0xbf056ae8	-0.5211625
147	0x3f00f93b	0.50380296
148	0xbea00ad5	-0.31258264
149	0xbeecc1a8	-0.46241498
150	0xbef3fdd5	-0.47654596
151	0x3e053715	0.13009293
152	0xbe7338db	-0.23752157
153	0xbf450b16	-0.7697004
154	0x3f206c61	0.62665373
155	0x3f45c65e	0.7725581
156	0xbf1c034e	-0.6094254
157	0x3f1ad7fc	0.60485816
158	0xbe517dda	-0.20458165
159	0xbd6c1b54	-0.05764325
160	0xbe7528db	-0.23941366
161	0x3d31195f	0.043237086
162	0xbe16e67c	-0.1473636
163	0x3d4643e3	0.048404586
164	0x3ebe2cc8	0.3714354
165	0xbf01d9dc	-0.5072305
166	0x3f08e5fb	0.5347592
167	0xbf5ebeb4	-0.8700974
168	0xbdb598e2	-0.08867051
169	0x3d54c113	0.051941942
170	0x3cf2c10a	0.029633064
171	0xbec2b060	-0.38025188
172	0xbe97c0a5	-0.29639164
173	0x3e2c9c5c	0.16856521
174	0x3f13b624	0.576998
175	0xbf44eb9d	-0.7692202
176	0x3e9fdcf1	0.31223252
177	0x3f0faebb	0.5612599
178	0x3f1f1403	0.6213991
179	0xbf04d5b0	-0.5188856
180	0x3d85d404	0.065345794
181	0xbe76754a	-0.2406818
182	0x3f1ab3f8	0.6043086
183	0xbe614847	-0.22000228
184	0x3f422fbf	0.75854105
185	0x3eba91e3	0.36439428
186	0x3da71f7c	0.08160302
187	0xbe9c37f1	-0.3051143
188	0x3e61ea1c	0.22061962
189	0xbef5e572	-0.48026615
190	0xbdf6d0b4	-0.12051526
191	0x3caa1c16	0.020765346
192	0x3dd67792	0.10472025
193	0x3e37ccd9	0.17949237
194	0xbc733145	-0.01484329
195	0xbdc71380	-0.09720516
196	0xbe0e73d5	-0.13911374
197	0xbd926ee7	-0.07150059
198	0x3f731c26	0.94964826
199	0xbc13a9b2	-0.0090126265
200	0x3d991dd2	0.07476391
201	0xbe02f383	-0.12788205
202	0xbd297694	-0.04137285
203	0xbe0c4453	-0.13697939
204	0x3d677016	0.056503378
205	0xbcbff063	-0.023430055
206	0x3d55f16b	0.052232187
207	0xbe1cb19d	-0.15302129
208	0x3e858490	0.260777
209	0xbe1be4f9	-0.15224065
210	0xbdf6f05a	-0.12057562
211	0xbf9c052c	-1.2189078
212	0x3e8e5280	0.27797318
213	0xbe1b9706	-0.1519433
214	0xbd8490b5	-0.06472913
215	0x3cc12374	0.023576476
216	0xbd8d47ac	-0.06898436
217	0x3d003d6b	0.031308573
218	0xbd27b821	-0.040947083
219	0x3c99d5ab	0.018778643
220	0xbddde433	-0.10834541
221	0xbe2bbd40	-0.16771412
222	0xbc9f7f97	-0.01947002
223	0xbad36ea0	-0.0016130991
224	0x3f8623bf	1.0479659
225	0xbd16b4e8	-0.03679362
226	0x3dcb3345	0.09921888
227	0xbcdfef2b	-0.027335724
228	0x3cbfd1c2	0.02341545
229	0x3c2d8012	0.010589616
230	0xbd187efb	-0.037230473
231	0x3ee265eb	0.44218382
232	0xbe7ea17c	-0.24866289
233	0xbdea8170	-0.114504695
234	0x3d5a9c98	0.053371996
235	0xbe1761ce	-0.14783403
236	0xbf3e65ad	-0.74373895
237	0xbd6029a7	-0.054727223
238	0xbe75fdff	-0.24022673
239	0x3d16e5ea	0.036840357
240	0x3d54dd65	0.05196895
241	0x3d4d81a9	0.05017248
242	0xbe7d9531	-0.24763943
243	0xbe86a16f	-0.2629504
244	0x3e99f1b8	0.3006723
245	0xbee3ee0a	-0.44517547
246	0xbda4ded3	-0.08050313
247	0x3f5d285f	0.86389726
248	0x3f030982	0.5118638
249	0x3ca71cc3	0.020399457
250	0x3f44f2e2	0.7693311
251	0xbe257e58	-0.16161478
252	0xbed46e4b	-0.41490397
253	0x3ed53739	0.41643694
254	0x3e236115	0.15955003
255	0x3e9e63d2	0.30935532

fcs1.bias f4 [128]
0	0xbf0d7f30	-0.552722
1	0xbf828c14	-1.0198998
2	0xbf3880a3	-0.72071284
3	0xbf4db223	-0.8034994
4	0xbf25f6bf	-0.6482963
5	0xbf99475f	-1.1974906
6	0xbda2893e	-0.07936333
7	0xbf389135	-0.7209657
8	0xbf6b74bd	-0.91975003
9	0xbf5107d5	-0.81652576
10	0xbf93f7cc	-1.1559997
11	0xbfba36bd	-1.4547955
12	0xbfb6a5e1	-1.4269372
13	0xbf9a53d1	-1.2056829
14	0xbf532f32	-0.8249389
15	0xbf2624a6	-0.6489967
16	0xbf42ecd7	-0.7614264
17	0xbecc3aad	-0.39888516
18	0xbe96339c	-0.2933625
19	0xbed658eb	-0.41864714
20	0xbf55c74e	-0.8350724
21	0xbe708033	-0.23486404
22	0xbf9af077	-1.2104634
23	0xbf95e8a3	-1.171162
24	0xbf52f07f	-0.8239822
25	0xbf6d2c52	-0.9264575
26	0xbef4ffbb	-0.47851357
27	0xbfada769	-1.3566715
28	0xbf780ad9	-0.9689155
29	0xbf133c8f	-0.5751428
30	0xbf70f4fd	-0.9412382
31	0xbf4d2861	-0.8013974
32	0xbf7593ea	-0.95928824
33	0xbebe12a1	-0.37123588
34	0xbf7f8ffb	-0.9982907
35	0xbf275ccb	-0.65375966
36	0xbf57e63b	-0.8433568
37	0xbf581f01	-0.8442231
38	0xbe83ca71	-0.25740388
39	0xbf201f01	-0.6254731
40	0xbeaa9be8	-0.33322072
41	0xbf4c3c5b	-0.79779595
42	0xbf90ed53	-1.1322426
43	0x3d23418d	0.039857436
44	0xbe1e2612	-0.1544421
45	0xbf803d39	-1.0018684
46	0x3b25a98d	0.0025278062
47	0xbda88055	-0.082276024
48	0xbf303ced	-0.68842965
49	0xbf5d3a74	-0.8641732
50	0xbe8f800a	-0.28027374
51	0xbf825471	-1.018202
52	0xbf6b2864	-0.91858506
53	0xbe4c7366	-0.19965896
54	0xbf2534c6	-0.6453365
55	0xbfab8606	-1.3400276
56	0xbe4afd33	-0.1982315
57	0xbde737a4	-0.112899095
58	0xbf5588cb	-0.83411855
59	0xbfb8af28	-1.4428453
60	0xbec474f2	-0.38370472
61	0xbf0d5bba	-0.5521809
62	0xbf72053e	-0.9453925
63	0xbe938cc1	-0.28818324
64	0xbf387787	-0.72057384
65	0xbf82d4d4	-1.02212
66	0xbeb889e1	-0.36042693
67	0xbee76338	-0.45192885
68	0xbf248743	-0.64268893
69	0xbf424dea	-0.7590014
70	0xbf640ba8	-0.89080286
71	0x3e9c0a79	0.3047674
72	0xbec28c19	-0.3799751
73	0xbee0514b	-0.43812022
74	0xbf87036a	-1.0547917
75	0xbf892e99	-1.0717345
76	0xbf89800c	-1.0742202
77	0xbf5cb6b0	-0.8621626
78	0xbf3c3352	-0.7351581
79	0xbf3e88dd	-0.74427587
80	0xbf457aa8	-0.77140284
81	0xbf840471	-1.0313855
82	0xbf7227b3	-0.94591826
83	0xbe789043	-0.24273781
84	0xbf3cbd61	-0.7372647
85	0xbf1e496f	-0.618308
86	0xbf0dff17	-0.5546736
87	0xbfa5ce0b	-1.2953504
88	0xbf7e04c1	-0.99226004
89	0xbd01ec31	-0.03171939
90	0xbea6187c	-0.32440555
91	0xbf9eb128	-1.2397814
92	0xbf386942	-0.7203561
93	0xbf8461f5	-1.0342394
94	0xbf2ac259	-0.667028
95	0xbf19f310	-0.6013651
96	0xbf802100	-1.0010071
97	0xbf8477e6	-1.034909
98	0xbfa16ba2	-1.2610972
99	0xbf47988e	-0.77967155
100	0xbc8e8e71	-0.017401906
101	0xbf3d3f2a	-0.73924506
102	0xbf43cd0f	-0.7648477
103	0xbf56c9b2	-0.8390151
104	0xbf1c09f4	-0.6095269
105	0xbf8ccdeb	-1.1000341
106	0xbf05072c	-0.5196407
107	0xbe2b4771	-0.16726471
108	0xbf1178e6	-0.568251
109	0xbebdd388	-0.37075448
110	0xbec3bb88	-0.38229012
111	0xbfbd4f87	-1.4789895
112	0xbf07d087	-0.5305256
113	0xbf201ea6	-0.62546766
114	0xbf276482	-0.6538774
115	0xbf3b1eff	-0.7309417
116	0xbfb9e4d9	-1.4522964
117	0xbf8fa49f	-1.1222113
118	0xbead7b34	-0.3388306
119	0xbf8f4691	-1.119341
120	0xbee25771	-0.44207337
121	0xbf4e2d8e	-0.8053826
122	0xbee27c24	-0.44235337
123	0xbeca68f9	-0.39533213
124	0xbdaa1a61	-0.083058126
125	0xbf6bc60c	-0.9209907
126	0xbf0428e5	-0.516249
127	0xbf73992d	-0.951556

fc2.weight f4 [128, 132]
0	0xbd155003	-0.03645326
1	0xbdf982a0	-0.12183118
2	0xbe41ad4d	-0.18913765
3	0xbb751828	-0.0037398431
4	0xbcaae971	-0.020863267
5	0xbe78823b	-0.24268429
6	0xbecce69f	-0.400197
7	0xbcabb06e	-0.020958152
8	0x3e06be7c	0.13158602
9	0xbe8db8f7	-0.2768018
10	0xbddaba48	-0.106800616
11	0xbe37407b	-0.17895691
12	0xbea26403	-0.31716928
13	0xbe9a0de8	-0.30088735
14	0xbf05ceb5	-0.52268535
15	0xbe1a2de0	-0.15056562
16	0xbe8d3aac	-0.27583826
17	0xbe0c666f	-0.1371095
18	0xbd808183	-0.062747024
19	0x3d4947df	0.049140807
20	0xbe1193c5	-0.14216526
21	0x3e5944f8	0.21217716
22	0xbd581037	-0.05274984
23	0xbee1adc5	-0.44077888
24	0x3d35e67d	0.044409264
25	0xbbecfc9c	-0.007232262
26	0x3cb67871	0.022274228
27	0x3e60dd1b	0.21959345
28	0xbc71baac	-0.014753979
29	0x3e528302	0.20557788
30	0x3e9d3c24	0.30709946
31	0xbd4153e5	-0.04719915
32	0x3db4ded6	0.08831565
33	0xbe2a29ea	-0.16617551
34	0xbd50812b	-0.050904434
35	0x3d9f8fe3	0.07791116
36	0x3e9a0960	0.30085278
37	0x3e2e9271	0.1704805
38	0xbe8afb10	-0.2714467
39	0xbe8b67e3	-0.27227697
40	0xbea1c79f	-0.3159761
41	0xbe603b6f	-0.21897672
42	0x3ee1a1cf	0.44068763
43	0x3c7bc433	0.015366602
44	0x3e1d2d84	0.15349394
45	0xbdae8d20	-0.08523011
46	0x3e03bf14	0.1286586
47	0xbdfea646	-0.12434058
48	0xbe5c7adf	-0.21531247
49	0xbe95d236	-0.2926194
50	0x3dc3cf06	0.09560971
51	0xbe81855a	-0.25297052
52	0xbe06ca56	-0.13163123
53	0xbeadce4f	-0.33946463
54	0xbf038dac	-0.5138805
55	0xbef3431d	-0.4751214
56	0x3ead0fd2	0.33801132
57	0xbf21d21d	-0.6321123
58	0xbef0bf1c	-0.47020805
59	0xbe45f4d6	-0.19331679
60	0x3e08c30b	0.13355653
61	0xbd581344	-0.052752748
62	0x3c6ad4f6	0.014333
63	0x3e4cc28a	0.19996086
64	0xbe1c34e8	-0.15254557
65	0xbc5675ff	-0.013089656
66	0x3e2bc4b3	0.16774254
67	0x3e172829	0.14761414
68	0xbe98f831	-0.29876855
69	0x3c321ae2	0.010870667
70	0xbeafb2ae	-0.3431601
71	0xbd4fe252	-0.050752945
72	0xbc2e1296	-0.010624548
73	0xbebbca5b	-0.36677822
74	0xbd632370	-0.055453718
75	0xbe93f4be	-0.2889766
76	0xbe455405	-0.19270332
77	0xbdbe4ac7	-0.092916064
78	0xbdb66602	-0.08906175
79	0xbe0b0aaa	-0.13578287
80	0xbeb737cc	-0.35784757
81	0xbe1964d6	-0.14979872
82	0x3db04d68	0.08608514
83	0x3c948023	0.018127507
84	0xbe83dcb3	-0.25754318
85	0xbe3a6189	-0.18201269
86	0x3d4da65c	0.05020748
87	0xbf36606e	-0.7124089
88	0xbd5e441a	-0.054264165
89	0xbe047acf	-0.12937473
90	0xbe2017b7	-0.15634046
91	0xbe9a7917	-0.3017051
92	0xbd7abfd1	-0.061218087
93	0xbe3bf6fa	-0.18355933
94	0x3e94df5d	0.29076663
95	0xbec9478c	-0.39312398
96	0x3d9176f4	0.07102767
97	0x3e10ded5	0.14147504
98	0xbce9bd9e	-0.0285328
99	0x3e014b35	0.12626345
100	0xbe1d6f23	-0.15374427
101	0xbed01fc8	-0.40649247
102	0xbdf7d214	-0.12100616
103	0x3e5c372b	0.2150542
104	0xbd0f9278	-0.035051793
105	0x3bd36485	0.006451192
106	0xbd2aee42	-0.041731127
107	0xbe2ebee5	-0.17065008
108	0xbef31f36	-0.4748475
109	0x3de208db	0.11036845
110	0xbe05e748	-0.13076508
111	0xbea909e3	-0.33015355
112	0xbe176b4d	-0.14787026
113	0xbd0eed0a	-0.034894027
114	0x3bc527ff	0.006016731
115	0xbf02e1ba	-0.5112568
116	0x3db3620c	0.08758935
117	0x3dd5c57e	0.10438059
118	0xbc974688	-0.01846625
119	0xbd86258c	-0.0655013
120	0xbea4b413	-0.32168636
121	0x3ccf923f	0.02533829
122	0x3e24892e	0.16067955
123	0xbe5bcaf6	-0.21464142
124	0xbe1851a5	-0.14874895
125	0x3cc408c8	0.023929968
126	0x3d3a65cc	0.045507237
127	0xbe63a039	-0.22229089
128	0x3b038801	0.0020070078
129	0xbba0747d	-0.004896699
130	0x3d83fecd	0.06445084
131	0xbcfaf4fe	-0.0306344
132	0x3e720379	0.23634137
133	0xbfac83e3	-1.3477749
134	0xbfa0ac71	-1.2552625
135	0xbe26a379	-0.16273297
136	0x3d281acf	0.04104119
137	0xbefb7767	-0.49114534
138	0xc01c20d6	-2.4395041
139	0xbe52bc9f	-0.20579766
140	0xbf878dd1	-1.0590154
141	0xbea9067d	-0.33012763
142	0x3e54b525	0.20772226
143	0xbf7ebfae	-0.9951123
144	0xbcd7c3e0	-0.026338518
145	0xbf2c2c7f	-0.67255396
146	0xbfa8a691	-1.3175832
147	0x3e6531ed	0.22382326
148	0xbda2baf7	-0.07945817
149	0xbf9b726f	-1.2144297
150	0x3dd0a2de	0.101873145
151	0xbf5846a6	-0.844828
152	0xbeff4c7a	-0.49863034
153	0x3da21731	0.0791458
154	0xbed04fec	-0.40685976
155	0xbe804d5a	-0.25059015
156	0x3d5650db	0.052323204
157	0xbddcb0c5	-0.107759036
158	0x3d8a8f05	0.0676556
159	0xbe09cd01	-0.13457109
160	0xbf854a83	-1.0413364
161	0xbfc894d0	-1.5670414
162	0xbfa2ab6f	-1.2708567
163	0xbe0867a9	-0.13320793
164	0xbf3ddaab	-0.74161786
165	0xbfc3bf46	-1.5292747
166	0xbfa0d00c	-1.2563491
167	0x3eb447cc	0.35211027
168	0xbefbe90b	-0.49201235
169	0xbf1bcc91	-0.6085902
170	0x3cbb61b4	0.022873737
171	0xbfb18c51	-1.3870946
172	0xbd3254da	-0.043537952
173	0x3ea03b53	0.3129526
174	0xbec6c8f7	-0.388252
175	0x3e2cfd31	0.1689346
176	0xbf206e55	-0.62668353
177	0xbf2e7ff5	-0.68163997
178	0x3f3f8a95	0.74820834
179	0xbed503f3	-0.41604576
180	0xbec5533e	-0.3854007
181	0xbb42e540	-0.0029738694
182	0xbf937d99	-1.1522704
183	0x3dc1a88b	0.09455975
184	0x3d283f0c	0.04107575
185	0xbf45604a	-0.7710005
186	0xbff12ad9	-1.8841201
187	0xbe40238f	-0.18763565
188	0x3ddf1cdb	0.108941756
189	0xbfe01780	-1.7507172
190	0xbd89fcbf	-0.067376606
191	0xbf077a33	-0.52920836
192	0xbeed3fc0	-0.463377
193	0xbf175ea6	-0.591288
194	0x3cdab41e	0.026697215
195	0xbfc7063d	-1.5548779
196	0xbef673b7	-0.48135158
197	0xbf3f856f	-0.7481298
198	0xbf31b62d	-0.69418603
199	0x3fa11e34	1.2587342
200	0xbc9aa92c	-0.018879496
201	0xbec55db8	-0.38548064
202	0xbf1b6ea0	-0.60715675
203	0xbf4c4972	-0.7979957
204	0xbf1bc2a9	-0.608439
205	0x3f5a75b9	0.8533588
206	0xbeaf1c2b	-0.34201178
207	0xbf025e99	-0.50925595
208	0xbe5c172c	-0.21493214
209	0xbef428fc	-0.4768752
210	0xbe4f2998	-0.2023071
211	0x3edcab18	0.43099284
212	0xbfb0f90c	-1.3826003
213	0xbeb5c7c2	-0.35503966
214	0xbfbec5ed	-1.4904152
215	0xbfa833b7	-1.3140782
216	0x3e5ad25f	0.21369313
217	0xbf9f4abb	-1.2444681
218	0x3e81a59f	0.2532167
219	0xbf4c3b90	-0.79778385
220	0x3eca7370	0.39541197
221	0xbf15a7b1	-0.58459
222	0xbf4679e4	-0.7752974
223	0xbee2bd6a	-0.44285136
224	0xbf176593	-0.59139365
225	0xbe181c20	-0.14854479
226	0xbf187ba7	-0.5956368
227	0xbe535400	-0.20637512
228	0xbecc37c6	-0.39886302
229	0xbf2c3061	-0.6726132
230	0x3e20e3ea	0.15711942
231	0xbdf4ce48	-0.119534075
232	0x3e2bffaf	0.16796754
233	0xbf53e111	-0.827653
234	0xbf853ab0	-1.0408535
235	0xbba208f5	-0.0049449154
236	0x3dbc209e	0.09185909
237	0x3d8ee917	0.06978052
238	0xbe862bf1	-0.262054
239	0xbed11944	-0.4083959
240	0x3f483d2b	0.78218335
241	0xbfe70c90	-1.8050709
242	0xbfe046dc	-1.7521625
243	0xbeab08c7	-0.33405134
244	0x3bfff1e8	0.00781082
245	0xbdc503de	-0.09619878
246	0x3e036f6c	0.12835473
247	0xbf131724	-0.57457185
248	0xbf149c2f	-0.5805082
249	0x3e6e0d5d	0.23247285
250	0xbfd3fd05	-1.656159
251	0xbf33bafc	-0.7020719
252	0xbda4d073	-0.08047571
253	0x3f1f624a	0.6225935
254	0xbf1de46f	-0.61676687
255	0xbf228815	-0.63488895

fc2.bias f4 [128]
0	0x3fb003fd	1.3751217
1	0xbe8d2ce7	-0.2757332
2	0xbf77648f	-0.96637815
3	0xbd8db407	-0.06919103
4	0xbdb36936	-0.08760302
5	0x3ff16f52	1.8862097
6	0xbe3649b1	-0.17801549
7	0xbec041be	-0.37550157
8	0xbf36f507	-0.7146763
9	0xbec0f8f8	-0.37689948
10	0xbe905aad	-0.2819418
11	0xbe9add14	-0.30246794
12	0x3e7e6edd	0.24846978
13	0xbfd353b2	-1.6509917
14	0xbeb8a589	-0.36063793
15	0xbf037d4f	-0.5136308
16	0x3f9641a3	1.1738781
17	0xbeb0a9b8	-0.34504485
18	0xbf8ff7d9	-1.1247512
19	0x3dd0bd80	0.10192394
20	0xbeaab145	-0.3333837
21	0xbf521d2c	-0.8207576
22	0xbf1e0578	-0.61727095
23	0xbeb57b07	-0.35445425
24	0xbee7f56e	-0.45304435
25	0xbecc115b	-0.3985699
26	0xbf3c3115	-0.73512393
27	0xbec7d43b	-0.39029106
28	0xbef06151	-0.46949247
29	0xbec755e2	-0.3893271
30	0xbfc06e96	-1.5033748
31	0x3f9fad87	1.2474831
32	0xbf257ea7	-0.6464638
33	0xbf057f0a	-0.5214697
34	0xbeb727bb	-0.357725
35	0xbf538462	-0.82623875
36	0xbfcf68b7	-1.6203831
37	0x3e5328f1	0.20621087
38	0xbdbbd282	-0.091710106
39	0x3ea9e29a	0.33180696
40	0x3e9ac123	0.30225477
41	0xbe81cfcb	-0.25353846
42	0xbf24566c	-0.6419437
43	0x3dfabbd1	0.122428544
44	0xbeac38de	-0.33637136
45	0xbe8e66b8	-0.27812743
46	0xbf3cd598	-0.7376342
47	0xbd168310	-0.036746085
48	0xba823e6c	-0.0009936816
49	0xbf945423	-1.1588176
50	0xbeb360f1	-0.35034898
51	0xbefde869	-0.49591377
52	0xbe3f03c7	-0.18653785
53	0xbf1346c4	-0.57529855
54	0xbde70292	-0.11279787
55	0xbfc89cc4	-1.5672841
56	0x3e8af21a	0.27137834
57	0x3edf5b8b	0.4362453
58	0xbf053568	-0.52034616
59	0x3f81ead3	1.0149788
60	0xbed70683	-0.41997156
61	0xbe462e10	-0.19353509
62	0xbfb54687	-1.4162148
63	0x3ecf7909	0.4052203
64	0x3e85a22e	0.26100296
65	0xbecaee57	-0.39634964
66	0xbf608632	-0.87704766
67	0xbe4d9b10	-0.20078683
68	0x3f0e787d	0.556526
69	0xbf0583f2	-0.5215446
70	0xbec18689	-0.37797955
71	0xbf14b72b	-0.5809199
72	0xbecd7c40	-0.40133858
73	0xbf2c5c1e	-0.6732806
74	0xbef7f42f	-0.48428485
75	0xbfc95d41	-1.5731584
76	0xbe81d991	-0.25361302
77	0xbdfef726	-0.124494836
78	0xbe83fbfe	-0.25778192
79	0xbf7ae25a	-0.98001635
80	0xbf1cba59	-0.61221844
81	0xbed17a78	-0.4091375
82	0xbddc29ce	-0.10750161
83	0x3f1a0ca2	0.60175526
84	0xbe55ac7e	-0.20866582
85	0xbf343469	-0.7039247
86	0xbf16f333	-0.5896484
87	0xbf079ec5	-0.5297664
88	0xbf02eb56	-0.51140344
89	0xbe8e3374	-0.2777363
90	0xbf307394	-0.6892636
91	0xbf00ea76	-0.5035776
92	0x3f9b3b61	1.2127496
93	0xbf90a11f	-1.129917
94	0xbee93938	-0.45551467
95	0xbe93a2f4	-0.2883526
96	0xbe584042	-0.21118262
97	0xbea233d3	-0.31680164
98	0xbe59e822	-0.21279958
99	0xbf8f9ae9	-1.121915
100	0x3fce6fca	1.6127865
101	0xbec0c1f4	-0.37647974
102	0xbf817ce5	-1.011624
103	0xbe7f45e2	-0.24929002
104	0x3f58e155	0.8471883
105	0xbeb45a42	-0.3522511
106	0xbd9e65cd	-0.07734261
107	0x3db8e718	0.09028453
108	0xbf0e1696	-0.55503213
109	0xbc02f9a6	-0.007994091
110	0xbe7243fe	-0.2365875
111	0xbe0c35db	-0.13692419
112	0xbe94dca2	-0.2907458
113	0xbed418ef	-0.41425273
114	0xbebcb4fb	-0.36856827
115	0xbe703b57	-0.23460136
116	0xbf1f7de7	-0.62301487
117	0xbead1f5c	-0.33812988
118	0xbdebf927	-0.115221314
119	0xbf0e240f	-0.5552377
120	0xbf910c21	-1.1331826
121	0xbdb493ac	-0.08817229
122	0xbf2e8fe4	-0.6818831
123	0xbf1a00ef	-0.60157675
124	0x3e88f938	0.2675264
125	0x3d92ddc6	0.07171206
126	0x3fa14f5a	1.2602341
127	0xbe3613cc	-0.1778099

fc3.weight f4 [1, 128]
0	0x3dcffd9f	0.10155796
1	0xbd75871e	-0.05994331
2	0xbde5a714	-0.11213508
3	0xbdc5c099	-0.09655876
4	0x3c36f52d	0.011166853
5	0x3ec6fcb1	0.38864663
6	0x3d187077	0.03721663
7	0xbd4b2939	-0.04959986
8	0xbca9cc38	-0.020727262
9	0xbb8b3ced	-0.0042492063
10	0xbd7e09df	-0.062021133
11	0xbd21fc1e	-0.03954708
12	0x3ca69785	0.020335922
13	0xbe833ef8	-0.2563398
14	0xbcc46e9c	-0.023978524
15	0xbc660c10	-0.014040962
16	0x3da8b4c1	0.08237601
17	0xbd5245d1	-0.051336113
18	0xbd0d8914	-0.034554556
19	0xbcdcc0e2	-0.026947442
20	0xbdfe517e	-0.12417887
21	0xbd8d8ed8	-0.06912011
22	0x3d245e0d	0.040128756
23	0x3d1dd900	0.038537025
24	0xbcb58d04	-0.022161968
25	0x3b2ee737	0.0026688108
26	0xbd7dff57	-0.06201109
27	0xbd895008	-0.06704718
28	0xbd0e6280	-0.034761906
29	0x3d14041d	0.036136735
30	0xbe030cbd	-0.12797828
31	0x3e135c7f	0.14390753
32	0x3ca2186b	0.019787034
33	0xbe4d07cc	-0.20022506
34	0xbd97cf45	-0.074125804
35	0xbd4868e2	-0.04892815
36	0xbe5775ef	-0.21041082
37	0x3cb4c974	0.022068717
38	0xbcafacfe	-0.021444794
39	0x3cf37024	0.029716559
40	0x3dc2d056	0.09512393
41	0x3ceff969	0.029293733
42	0xbdb5e9a1	-0.08882452
43	0x3d7a0c3f	0.061046835
44	0xbdfa72aa	-0.12228902
45	0xbdb465cd	-0.088084795
46	0xbc4640cb	-0.012100409
47	0xbd36d65c	-0.044638023
48	0x3b8b5dbd	0.004253118
49	0xbd2192fb	-0.039446812
50	0xbd1bf0c4	-0.03807141
51	0xbca4c87b	-0.020115128
52	0x3cfe0b8f	0.031011371
53	0xbd6807ed	-0.056648184
54	0x3d5370e4	0.051621333
55	0xbe3ce232	-0.18445662
56	0xbdc76760	-0.09736514
57	0xbd7eeea5	-0.062239308
58	0xbd192c9c	-0.03739606
59	0x3d73b73a	0.05950091
60	0x3cdde1e1	0.027085247
61	0xbd680ba9	-0.056651745
62	0xbe1ece06	-0.15508279
63	0x3d1fd524	0.039021626
64	0xbcf4498b	-0.029820224
65	0xbcf272af	-0.029595701
66	0xbdc65405	-0.09683994
67	0x3d38a871	0.045082513
68	0x3d813725	0.06309346
69	0xbcc32cc1	-0.023825051
70	0x3cb94181	0.022614243
71	0xbd83543d	-0.064125516
72	0xbd7f6737	-0.062354293
73	0xbdf3388e	-0.11876021
74	0xbc8cd9e8	-0.01719375
75	0xbe405f83	-0.18786435
76	0xbd4c311d	-0.049851526
77	0xbd933397	-0.07187574
78	0xbdb2a637	-0.08723109
79	0x3d851904	0.06498912
80	0xbc353904	-0.011060957
81	0x3d162e61	0.036665324
82	0x3d3ed738	0.046591967
83	0x3d43bbe8	0.047786623
84	0xbdba4da3	-0.09096839
85	0xbd1139a4	-0.03545536
86	0xbd9af560	-0.07566333
87	0xbd4e2a57	-0.050333347
88	0xbe19e3a0	-0.15028238
89	0x3c42629f	0.011864333
90	0xbd92da93	-0.07170596
91	0x3d969b69	0.07353861
92	0x3d8cecea	0.06881125
93	0xbdc49af1	-0.09599865
94	0x3c84e126	0.01622064
95	0x3cc180a9	0.02362092
96	0xbd59d5f0	-0.053182542
97	0xbd1b096f	-0.037850793
98	0xbdbbe844	-0.091751605
99	0xbd9bdf61	-0.076109655
100	0x3e664a7c	0.22489351
101	0xbd559e41	-0.052152876
102	0xbd8c420d	-0.06848536
103	0xbc55acc4	-0.013041679
104	0x3d1c5897	0.038170423
105	0xbd6fff0e	-0.05859285
106	0xbe2d4fc0	-0.16924953
107	0x3db7cc7b	0.089745484
108	0xbd3208f8	-0.043465585
109	0x3d392241	0.045198683
110	0xbd462a31	-0.04838008
111	0x3d2e4609	0.04254726
112	0xbddd2371	-0.107977755
113	0x3cd7bb0e	0.026334312
114	0xbd22df55	-0.039763767
115	0xbd905013	-0.07046523
116	0xbe00f256	-0.12592444
117	0xbcf85db1	-0.030318113
118	0x3d6556e2	0.05599106
119	0x3d1f38ea	0.038872637
120	0xbda3d2e3	-0.07999208
121	0xbd028008	-0.03186038
122	0x3d0bf169	0.034165774
123	0xbb688876	-0.0035481728
124	0x3cdd25a8	0.026995495
125	0x3c45f8e1	0.012083263
126	0x3dcb63fb	0.09931179
127	0xbda43b82	-0.08019163
