weights/checkpoint_critic.pth (torch_old, 88092 bytes, 9 tensors)

bn1.weight f4 [33]
0	0x3ed8ff3c	0.42382228
1	0x3e7fff8b	0.24999826
2	0x3eca2d74	0.39487803
3	0x3df737ce	0.12071191
4	0xbd8a63ca	-0.067573145
5	0x3e100e5a	0.14067975
6	0x3d65a24f	0.056062993
7	0x3ca51416	0.02015118
8	0x3d9719f7	0.07377999
9	0xbd4f75c0	-0.050649405
10	0x3da51995	0.0806152
11	0x3dc61644	0.096722156
12	0x3dd50513	0.104013585
13	0x3f551e5d	0.83249456
14	0x3eae9416	0.34097356
15	0x3f40325f	0.7507686
16	0x3dbe7ae7	0.093007855
17	0x3e0618fd	0.1309547
18	0x3da43883	0.08018591
19	0x3de9367d	0.11387346
20	0x3d4c07e3	0.04981221
21	0x3d39227a	0.045198895
22	0x3d15cc13	0.036571573
23	0x3e9b246e	0.3030123
24	0x3e4a02cb	0.19727628
25	0x3e9007cc	0.2813095
26	0x3f337687	0.70102733
27	0x3e4c2604	0.19936377
28	0x3f2ce9cb	0.6754424
29	0x3bc9dd80	0.006160438
30	0x3f739914	0.95155454
31	0x3d9a2500	0.075265884
32	0x3f15c3d0	0.5850191

bn1.bias f4 [33]
0	0xbc11dea1	-0.0089031765
1	0xbd770bd2	-0.060314007
2	0x3da191b1	0.078891166
3	0xbc77527f	-0.015095352
4	0x3c8638da	0.01638453
5	0x3c40e5cd	0.011773539
6	0xbc579d93	-0.013160127
7	0x3ba22a2c	0.004948875
8	0x3b25bb19	0.002528852
9	0xbcd78a1f	-0.026310978
10	0x3c090e20	0.008365184
11	0xbc44107f	-0.011966824
12	0x3cbb8d0b	0.022894403
13	0xbca4eb8b	-0.020131847
14	0x3be12d54	0.0068718586
15	0xbcede6b0	-0.029040664
16	0x3c57654a	0.013146708
17	0x3cc1e8d6	0.023670595
18	0xbb983f97	-0.0046462524
19	0xbcd60aef	-0.02612826
20	0xba311cc2	-0.00067562994
21	0xbb56b277	-0.0032760182
22	0x3c291007	0.010318763
23	0x39bfd226	0.00036586932
24	0x3d32f59f	0.043691274
25	0x3bfd2f53	0.0077265888
26	0x3d81d835	0.06340066
27	0x3b98b145	0.004659804
28	0xbdf30a6b	-0.118672214
29	0xb9be20f0	-0.00036264164
30	0x3a9c9b7d	0.0011948195
31	0xbb8c4721	-0.00428094
32	0x3d01c952	0.031686135

bn1.running_mean f4 [33]
0	0xbf35d803	-0.7103273
1	0xc0140ffb	-2.3134754
2	0x3f13d8f4	0.5775292
3	0x3f4d9fcc	0.80321956
4	0xbdb4c1b7	-0.08826011
5	0x3bfd606d	0.007732442
6	0x3dac25eb	0.0840567
7	0x3ca54e0c	0.020178817
8	0x3addbc7a	0.0016917132
9	0x3c06834d	0.0082100155
10	0x3d09ba5b	0.033624988
11	0xbcb8ef46	-0.022575032
12	0xbd553adb	-0.052058082
13	0xbf53510d	-0.8254555
14	0xc0145b2d	-2.318065
15	0x3f98268d	1.1886765
16	0xbd14badb	-0.03631101
17	0xbe2daefd	-0.16961284
18	0x3d004c5a	0.031322815
19	0xbe17e248	-0.14832413
20	0x3dc4ffa8	0.09619075
21	0x3d7d6041	0.061859373
22	0xbd1ca5f2	-0.038244195
23	0xbccc8e6a	-0.024970252
24	0x3de08e2c	0.10964617
25	0x3d49e5ee	0.049291544
26	0x3e0c8f1c	0.13726467
27	0xbf7ffffc	-0.99999976
28	0x3dd708b7	0.10499709
29	0x00000000	0.0
30	0x3f7ffffc	0.99999976
31	0x00000000	0.0
32	0xbcfb2043	-0.030655032

bn1.running_var f4 [33]
0	0x40871524	4.2213306
1	0x3f205c55	0.6264089
2	0x40a11c71	5.034722
3	0x3e025b90	0.12730241
4	0x3d906e7e	0.07052325
5	0x3c95c5b3	0.018282747
6	0x3dfe8848	0.12428337
7	0x3ee2303a	0.4417742
8	0x3d8472f6	0.064672396
9	0x3ddcc406	0.10779576
10	0x40057bf9	2.0856917
11	0x3fb50e88	1.414506
12	0x405d02ea	3.4533029
13	0x41948254	18.563637
14	0x3ff451e0	1.9087486
15	0x41aca140	21.578735
16	0x3dda036c	0.10645184
17	0x3ea12ed8	0.3148105
18	0x3dcf8f91	0.10134805
19	0x3ed9e0dc	0.42554367
20	0x3ff52752	1.9152625
21	0x3f42c768	0.7608552
22	0x3f2f78e8	0.68543863
23	0x40f64e63	7.6970687
24	0x408f342d	4.475119
25	0x411463d9	9.274377
26	0x41f94870	31.16037
27	0x00000004	6e-45
28	0x4203f35d	32.98766
29	0x00000004	6e-45
30	0x00000004	6e-45
31	0x00000004	6e-45
32	0x3ea66f5d	0.32506838

fcs1.weight f4 [128, 33]
0	0x3e596a88	0.21232045
1	0x3f578ea6	0.8420204
2	0xbefa17e3	-0.4884635
3	0x3cbf3bec	0.023344003
4	0xbdc892dd	-0.09793637
5	0xbf102fdc	-0.5632303
6	0x3df59405	0.11991123
7	0x3e390341	0.18067648
8	0x3dc91368	0.098181546
9	0x3e4e435c	0.20142883
10	0x3e4e8690	0.20168519
11	0x3f291a95	0.66056186
12	0xbf4ed371	-0.80791384
13	0x3e0d087a	0.13772765
14	0xbead5ebb	-0.33861336
15	0xbc86bdd3	-0.016447937
16	0xbf09adc2	-0.5378076
17	0xbdaf673f	-0.085646145
18	0x3ed220c1	0.41040614
19	0x3e8b5586	0.27213687
20	0xbdbdcb78	-0.09267324
21	0xbec00247	-0.37501737
22	0x3da72143	0.08160641
23	0xbe097d15	-0.13426621
24	0xbe92eb99	-0.28695372
25	0x3e81a25a	0.25319177
26	0xbf311e3d	-0.69186765
27	0xbdb0e969	-0.086382695
28	0xbc39df3e	-0.011344729
29	0xbd700e12	-0.05860717
30	0xbd618d25	-0.055066247
31	0xbd090547	-0.0334523
32	0xbe70ed31	-0.23527981
33	0x3e2e1841	0.1700144
34	0x3e6009ed	0.21878786
35	0x3ee51f3a	0.44750386
36	0x3d431ba4	0.047633782
37	0xbf11e9b4	-0.5699723
38	0xbeec1c54	-0.46115363
39	0x3eff48ea	0.49860317
40	0x3e90302b	0.2816175
41	0x3e6b4619	0.22975959
42	0x3eb59a18	0.35469127
43	0xbe855570	-0.26041746
44	0x3f21e9ab	0.63247174
45	0x3e0a8f4c	0.13531226
46	0xbc1d1035	-0.009586384
47	0x3e89f78f	0.26946685
48	0xbe2104c2	-0.15724471
49	0xbec517d9	-0.38494757
50	0xbe90bf09	-0.28270748
51	0x3d27e031	0.04098529
52	0x3e185608	0.14876568
53	0x3d1feab5	0.039042193
54	0xbe6ac08b	-0.22925012
55	0xbe3e7754	-0.18600208
56	0x3cf3fee7	0.029784633
57	0x3e920fe2	0.28527743
58	0x3e2aa0bb	0.16662876
59	0x3eacbab7	0.33736202
60	0x3e15d9a6	0.14633808
61	0xbdddf681	-0.108380325
62	0xbe1d2a19	-0.1534809
63	0x3d055cdc	0.03255926
64	0xbdc485f2	-0.095958605
65	0x3ea65b8f	0.3249173
66	0xbcbe5737	-0.023234947
67	0x3e89012b	0.26758704
68	0xbf1a9802	-0.60388196
69	0x3edc7f7e	0.4306602
70	0xbe7ba1c2	-0.24573424
71	0xbf1c15ea	-0.6097094
72	0xbd7ef981	-0.062249664
73	0x3e6d3e15	0.23168214
74	0x3ef0704e	0.46960682
75	0x3e71cf53	0.23614244
76	0xbf0e2903	-0.5553133
77	0x3d50c7e7	0.05097189
78	0xbf69e91f	-0.9137134
79	0xbe790922	-0.2431989
80	0x3ec385e5	0.3818809
81	0xbd1b695c	-0.037942275
82	0x3e37acaf	0.17936967
83	0x3e830468	0.255893
84	0xbee9f4cd	-0.4569458
85	0xbf01f738	-0.5076785
86	0xbe95e7fd	-0.29278556
87	0xbed40016	-0.41406316
88	0xbe1c9a93	-0.1529334
89	0xbd9eaf81	-0.077483185
90	0xbd9e77a5	-0.07737664
91	0x3e94463b	0.28959832
92	0x3e63a68b	0.222315
93	0xbdc7f1ff	-0.09762954
94	0x3b9828a6	0.0046435175
95	0x3dce3add	0.10069821
96	0x3d2a1e6d	0.041532923
97	0x3cad32e7	0.021142436
98	0xbe1f92a2	-0.1558328
99	0xbe416a98	-0.18888319
100	0x3e9c3271	0.30507234
101	0x3edea595	0.43485704
102	0xbe058274	-0.13038045
103	0xbdf338e0	-0.118760824
104	0xbe06e572	-0.13173464
105	0xbe04a4c0	-0.12953472
106	0x3ee80650	0.45317316
107	0x3cfc5358	0.03080146
108	0xbe582ea5	-0.21111543
109	0x3dba8dfd	0.09109113
110	0x3e823a96	0.25435323
111	0xbe1e57f3	-0.15463237
112	0x3e9f31a0	0.31092548
113	0xbe0c66d1	-0.13711096
114	0xbf3935c8	-0.7234769
115	0xbe640321	-0.22266819
116	0x3db97bca	0.09056814
117	0xbecdacc4	-0.40170872
118	0xbe5b864b	-0.21437947
119	0xbe5a5ffd	-0.21325679
120	0x3e78243f	0.24232577
121	0xbd27021b	-0.040773492
122	0x3d84a261	0.06476284
123	0xbe948524	-0.29007828
124	0xbe444d6d	-0.1917016
125	0xbf264998	-0.64956045
126	0xbd03beff	-0.03216457
127	0x3e2579e1	0.16159774
128	0xbc066b88	-0.008204348
129	0xbcb6e8ed	-0.022327865
130	0x3d2e02d1	0.042483155
131	0x3f3ad2e8	0.7297807
132	0xbf257dc1	-0.6464501
133	0x3e1183ef	0.14210485
134	0xbe22ac66	-0.15886077
135	0x3e817c8f	0.25290343
136	0x3d47caf0	0.04877752
137	0xbe967e8a	-0.29393417
138	0xbe2a0dca	-0.16606823
139	0x3eb5d835	0.35516515
140	0x3e0fef06	0.14056024
141	0x3f39d4d4	0.72590375
142	0xbf3af335	-0.73027354
143	0xbe06ffd0	-0.13183522
144	0xbe8c8655	-0.27446237
145	0x3f1dd6ca	0.6165587
146	0xbf0e219d	-0.5552004
147	0x3f2c1a5c	0.6722772
148	0xbf32be30	-0.69821453
149	0xbedcf762	-0.43157488
150	0xbee34f21	-0.44396308
151	0x3d362a5e	0.044474
152	0xbf09d8de	-0.5384654
153	0xbeb9343d	-0.36172667
154	0x3f0a8d0e	0.5412148
155	0x3f30ab3b	0.69011277
156	0xbe390a86	-0.1807042
157	0x3e9b313b	0.30310997
158	0xbe86323a	-0.26210195
159	0x3dba6fef	0.09103381
160	0xbe552240	-0.20813847
161	0xba19eff3	-0.0005872242
162	0x3df8249f	0.1211636
163	0xbe0df840	-0.13864231
164	0xbd9b7dad	-0.0759233
165	0xbeb7d9ce	-0.3590836
166	0x3f1e6be6	0.6188339
167	0xbea1096a	-0.31452495
168	0xbe02aee8	-0.12762034
169	0x3e5a102d	0.21295233
170	0xbe495b9f	-0.19663857
171	0x3c43ea5d	0.011957732
172	0xbe5e592c	-0.21713704
173	0x3c81161e	0.015757617
174	0x3ee5f843	0.4491597
175	0xbf229ae4	-0.63517594
176	0x3f46244d	0.7739914
177	0x3eb9083b	0.36139092
178	0x3f16e654	0.589452
179	0xbf14d4ff	-0.58137506
180	0x3e95142e	0.29116958
181	0xbef71d6f	-0.48264644
182	0x3e5e87bf	0.2173147
183	0x3cf8f3c1	0.030389668
184	0x3ecb4020	0.3969736
185	0xbcf36304	-0.0297103
186	0xbe9f2659	-0.31083944
187	0xbde164a6	-0.11005525
188	0x3e8c042f	0.27346942
189	0xbe5abb6c	-0.21360558
190	0xbe9f1339	-0.31069353
191	0xbdefa135	-0.1170067
192	0x3d47123f	0.048601385
193	0x3e158fd7	0.14605652
194	0xbd5715f4	-0.05251117
195	0xbcd868ec	-0.026417218
196	0x3e08d195	0.13361199
197	0x3cae787d	0.021297688
198	0x3f50b1d4	0.81521344
199	0xbe074d3b	-0.13213055
200	0x3b59ce71	0.003323462
201	0xbe966535	-0.2937409
202	0xbd0e5d1c	-0.034756765
203	0x3c1efd7d	0.009703991
204	0x3e1a53ef	0.1507108
205	0xbcb721dd	-0.022355014
206	0xbcd3d252	-0.025857124
207	0xbdff276f	-0.12458693
208	0x3e97e05b	0.29663357
209	0xbd9ada95	-0.075612225
210	0xbd81eda4	-0.063441545
211	0xbf92e4b0	-1.147604
212	0x3e2f2ba4	0.17106491
213	0xbd99cca1	-0.07509733
214	0xbdee7c95	-0.11644856
215	0xbdd21802	-0.102584854
216	0xbe051192	-0.12994984
217	0x3e57c4e5	0.21071203
218	0x3d9dc69d	0.07703898
219	0xbcc41260	-0.023934543
220	0xbdc56e78	-0.09640211
221	0xbe804a78	-0.25056815
222	0x3d7d4667	0.06183472
223	0xbd436a6c	-0.047708914
224	0x3f811684	1.0084996
225	0x3b85d0c2	0.0040837238
226	0x3e0c14b8	0.13679779
227	0xbc02a070	-0.007972822
228	0xbbd2711b	-0.0064221746
229	0x392f4569	0.00016715158
230	0x3d063fa0	0.03277552
231	0xbda4cc0f	-0.080467336
232	0xbdcb8b1c	-0.099386424
233	0xbe4add40	-0.19810963
234	0xbc86b213	-0.016442334
235	0xbe913873	-0.2836338
236	0xbed6160a	-0.4181369
237	0xbd978c23	-0.07399776
238	0x3db34ed5	0.087552704
239	0xbce80a94	-0.028325357
240	0x3f12dd8c	0.57369304
241	0xbec9060b	-0.39262423
242	0xbe1cb3b5	-0.15302928
243	0xbf433433	-0.76251525
244	0xbdd6f9fb	-0.10496899
245	0x3e350e01	0.17681123
246	0x3e0feb3f	0.14054583
247	0xbd827f98	-0.06371993
248	0x3ec73813	0.3890997
249	0x3f364b49	0.71208626
250	0x3f293736	0.6609987
251	0x3e074dff	0.13213347
252	0xbf163faf	-0.58690923
253	0x3e3d517b	0.18488114
254	0xbe5b6e14	-0.2142871
255	0x3f0b37ad	0.5438183

fcs1.bias f4 [128]
0	0xbef34be8	-0.4751885
1	0xbf7ea095	-0.9946378
2	0xbf35cfe0	-0.7102032
3	0xbf4d8f2e	-0.802966
4	0xbf166d44	-0.58760476
5	0xbf972e3a	-1.1810982
6	0xbc1beb3a	-0.009516532
7	0xbf3f332c	-0.7468746
8	0xbf486382	-0.78276837
9	0xbf39e0d9	-0.72608715
10	0xbf88b6bd	-1.0680767
11	0xbfaf157f	-1.3678435
12	0xbfb1b528	-1.388341
13	0xbf860f8c	-1.0473495
14	0xbf43bb14	-0.76457334
15	0xbf228248	-0.63480043
16	0xbf31611d	-0.6928881
17	0xbe828681	-0.25493243
18	0xbe48c44e	-0.19606134
19	0xbebe6f4e	-0.37194294
20	0xbf416598	-0.75545645
21	0xbe35c165	-0.17749555
22	0xbf8ef26b	-1.116773
23	0xbf946516	-1.1593349
24	0xbf3be974	-0.73403096
25	0xbf6921fa	-0.9106747
26	0xbeb6ba07	-0.35688803
27	0xbf98227f	-1.1885527
28	0xbf568ed1	-0.8381167
29	0xbf3b519e	-0.7317141
30	0xbf336136	-0.7007021
31	0xbf3bf19c	-0.7341554
32	0xbf56b82d	-0.8387478
33	0xbeac8ba3	-0.33700284
34	0xbf541923	-0.82850856
35	0xbf09b028	-0.5378442
36	0xbf377edf	-0.71677965
37	0xbf2e0100	-0.67970276
38	0xbeb8c7ca	-0.36089927
39	0xbf175509	-0.5911413
40	0xbee33ca2	-0.44382197
41	0xbf25f35f	-0.6482448
42	0xbf7da5fb	-0.9908139
43	0xbc86a5e4	-0.016436525
44	0xbe03933e	-0.12849137
45	0xbf62b1cb	-0.8855254
46	0xbd50e70c	-0.051001593
47	0xbdc4cccf	-0.09609377
48	0xbf1a4e36	-0.6027559
49	0xbf5c6187	-0.86086315
50	0xbe943bc2	-0.28951842
51	0xbf77459e	-0.965906
52	0xbf687314	-0.90800595
53	0xbe530681	-0.2060795
54	0xbf055a41	-0.5209084
55	0xbf9a347f	-1.204727
56	0xbe0a3ae8	-0.13499033
57	0xbe547487	-0.20747577
58	0xbf5097cb	-0.8148162
59	0xbfa54037	-1.2910222
60	0xbef4318f	-0.4769406
61	0xbed2275a	-0.41045648
62	0xbf59b023	-0.8503439
63	0xbe864b42	-0.26229292
64	0xbf0bbc78	-0.54584455
65	0xbf80b998	-1.0056639
66	0xbec069d2	-0.37580734
67	0xbed7e502	-0.42166907
68	0xbeef25a8	-0.46708417
69	0xbf18828c	-0.595742
70	0xbf771fbb	-0.9653279
71	0x3e009ee3	0.1256061
72	0xbee5a411	-0.44851735
73	0xbf14378a	-0.57897246
74	0xbf5cc8d7	-0.8624396
75	0xbf82cdea	-1.021909
76	0xbf9ffa2d	-1.2498223
77	0xbf43c31e	-0.764696
78	0xbf227bd5	-0.634702
79	0xbf45273e	-0.77013004
80	0xbf604dda	-0.8761879
81	0xbf63f017	-0.89038223
82	0xbf63ad39	-0.8893619
83	0xbe810dcb	-0.25205836
84	0xbf3e58e0	-0.7435436
85	0xbf0d59b3	-0.55214995
86	0xbebac24f	-0.3647637
87	0xbf970df0	-1.1801128
88	0xbf536177	-0.82570595
89	0xbd5cff66	-0.053954504
90	0xbe8cb70c	-0.27483404
91	0xbf963575	-1.1735064
92	0xbf31851a	-0.6934372
93	0xbf2cec7d	-0.6754835
94	0xbf4fd6a7	-0.8118691
95	0xbf03fcd4	-0.5155766
96	0xbf8688de	-1.0510519
97	0xbf631ed3	-0.8871891
98	0xbf8fdf75	-1.1240069
99	0xbf4a09b7	-0.78921074
100	0x3c68773b	0.014188583
101	0xbed55c3c	-0.41671932
102	0xbf346049	-0.7045942
103	0xbf34f5e7	-0.7068772
104	0xbf074ec1	-0.52854544
105	0xbf7ca4dc	-0.98689055
106	0xbed9a9ef	-0.42512462
107	0xbe173d4c	-0.14769477
108	0xbf213d5d	-0.6298426
109	0xbee75c6e	-0.45187706
110	0xbeb0ef57	-0.34557602
111	0xbfb0eafe	-1.3821714
112	0xbee62cdb	-0.44956097
113	0xbf3e0754	-0.7422993
114	0xbf2638b3	-0.64930266
115	0xbf35e1b0	-0.71047497
116	0xbfa7d2ec	-1.3111243
117	0xbf75864d	-0.9590805
118	0xbe2bb4b5	-0.16768153
119	0xbf858349	-1.043069
120	0xbeccd035	-0.400026
121	0xbf2c0892	-0.6720058
122	0xbe8b5f85	-0.27221313
123	0xbea7806e	-0.32715172
124	0x3d6a9ca6	0.057278298
125	0xbf3ff4a3	-0.7498266
126	0xbecdcb40	-0.4019413
127	0xbf5e018d	-0.86721116

fc2.weight f4 [128, 132]
0	0x3e210cd8	0.15727556
1	0xbe7336ac	-0.23751324
2	0xbd3dacf9	-0.046307538
3	0x3d6582cb	0.056032937
4	0xbd7fbe32	-0.062437244
5	0xbe8e6b31	-0.27816156
6	0xbeb93a74	-0.3617741
7	0xbd2bc862	-0.041939147
8	0x3dfb6a00	0.12276077
9	0xbe416a4e	-0.18888208
10	0xbdd31ecf	-0.10308611
11	0xbe337f04	-0.17528921
12	0xbea313f9	-0.31851175
13	0xbe4c1f3d	-0.19933791
14	0xbf05ae70	-0.52219296
15	0xbe21183f	-0.15731905
16	0xbebbfe7c	-0.36717594
17	0xbd3ebdab	-0.0465676
18	0xbc985c46	-0.018598687
19	0xbd7a4a0d	-0.061105777
20	0xbde7e7bc	-0.11323497
21	0x3e7aad6b	0.24480216
22	0xbd5f7d18	-0.054562658
23	0xbeca8ca6	-0.3956043
24	0x3d6b932e	0.05751341
25	0x3bd1c0d6	0.0064011617
26	0x3d8f3550	0.069925904
27	0x3e514ab4	0.20438653
28	0xbd96d475	-0.07364742
29	0x3dcef6d1	0.1010567
30	0x3e7bfede	0.24608943
31	0xbe0d1f14	-0.13781387
32	0x3d84b802	0.06480409
33	0xbda9a318	-0.08283061
34	0xbdb52f2a	-0.088468865
35	0x3dc44f24	0.095854074
36	0x3e18d082	0.1492329
37	0x3e05e647	0.13076125
38	0xbe884ffc	-0.26623523
39	0xbe674c11	-0.22587611
40	0xbe8a2cf8	-0.26987433
41	0xbecaa508	-0.39579034
42	0x3eb68e6d	0.35655537
43	0x3d7a9965	0.061181445
44	0x3e3359f6	0.17514786
45	0xbe1abe30	-0.15111613
46	0x3e3b14d6	0.18269667
47	0x3d0c5816	0.034263693
48	0xbe1c6664	-0.15273434
49	0xbdf499a0	-0.11943364
50	0x3e2953c2	0.16535857
51	0xbe50a9eb	-0.20377319
52	0xbdf095ac	-0.11747298
53	0xbe91afab	-0.28454337
54	0xbeba5b6f	-0.36397883
55	0xbecc791d	-0.39936152
56	0x3eadbbc5	0.3393232
57	0xbf38f1a6	-0.72243726
58	0xbe8bf19d	-0.27332774
59	0xbe48a3a0	-0.19593668
60	0x3e07161e	0.13192031
61	0xbcff503f	-0.031166194
62	0xbe5924e1	-0.21205474
63	0x3e31eb76	0.17374977
64	0xbdc1e157	-0.09466808
65	0x3d0f7eed	0.035033155
66	0x3e45f604	0.19332129
67	0x3dffdf33	0.12493744
68	0xbe4c46eb	-0.19948928
69	0x3d443425	0.04790129
70	0xbe940fd6	-0.28918332
71	0x3b5dc207	0.0033837573
72	0xbcb440ab	-0.022003492
73	0xbeca9e2f	-0.3957381
74	0xbcfb5c43	-0.030683642
75	0xbe82c411	-0.25540212
76	0xbe3dbaab	-0.1852824
77	0xbe004bcb	-0.12528913
78	0xbdc5e4ae	-0.09662758
79	0xbea07ddd	-0.31346026
80	0xbebeed3e	-0.37290376
81	0xbe15441c	-0.14576763
82	0x3e39a998	0.18131101
83	0x3d44d370	0.048053205
84	0xbe8a9e73	-0.27074012
85	0xbde37c43	-0.111076854
86	0x3dc9bbac	0.09850249
87	0xbf1af99a	-0.6053711
88	0x3c50039f	0.012696176
89	0xbdf172b6	-0.117894575
90	0xbdc878f1	-0.09788693
91	0xbee4d591	-0.44694188
92	0xba3d22ab	-0.0007214944
93	0xbd107424	-0.03526701
94	0x3ea4a9ec	0.3216089
95	0xbe91a266	-0.28444213
96	0x3e237c21	0.1596532
97	0x3e0d5d67	0.13805161
98	0x3c5a60aa	0.013328711
99	0xbd2986b5	-0.041388232
100	0xbd8efe61	-0.06982113
101	0xbea0ff5e	-0.3144483
102	0xbda36e4a	-0.0798002
103	0x3dc4b0f5	0.096040644
104	0xbd2a2be0	-0.04154575
105	0xbd34f760	-0.044181228
106	0x3d9fb4cd	0.07798157
107	0xbdf6a268	-0.12042695
108	0xbecdd5ac	-0.4020208
109	0x3e5b802c	0.21435612
110	0xbe0fabe7	-0.1403042
111	0xbea52e93	-0.32262096
112	0xbe59fca4	-0.21287781
113	0xbe8b5b0c	-0.272179
114	0x3df5c4b3	0.12000408
115	0xbf1c4ee6	-0.6105789
116	0x3dec1025	0.11526517
117	0x3df6de6d	0.12054143
118	0xbd528ef9	-0.05140588
119	0xbe0a1fff	-0.13488768
120	0xbea72943	-0.32648668
121	0xbdab79ef	-0.08372866
122	0x3e8df577	0.27726337
123	0xbe75586b	-0.2395951
124	0xbe22a2ce	-0.15882418
125	0xbcaf426c	-0.021393977
126	0x3e64c61a	0.22341195
127	0xbdb423bc	-0.08795878
128	0x3c6ade13	0.014335173
129	0xbb969248	-0.004595075
130	0x3dc9d90a	0.0985585
131	0xbd713dc8	-0.05889681
132	0x3e633b0c	0.22190493
133	0xbf8018b0	-1.0007534
134	0xbf870ca1	-1.0550729
135	0xbda5fd3d	-0.08104942
136	0xbe10c6ed	-0.14138384
137	0xbe85d046	-0.26135463
138	0xc015a30c	-2.3380766
139	0xbe33568d	-0.17513485
140	0xbf4f99e7	-0.8109421
141	0xbe05cb10	-0.13065743
142	0x3edbd368	0.42934728
143	0xbf444b8d	-0.7667778
144	0x3e830af9	0.2559431
145	0xbeeff584	-0.46867
146	0xbf97f167	-1.1870545
147	0x3ec616cd	0.3868927
148	0x3ec88ad4	0.39168417
149	0xbf0e9d47	-0.55708736
150	0x3e0a4672	0.13503435
151	0xbed5c38b	-0.4175075
152	0x3e1e2c21	0.15446521
153	0xbeb37518	-0.35050273
154	0xbe66a944	-0.22525507
155	0x3e1dc97a	0.15408888
156	0xbdcbd8ba	-0.09953447
157	0x3e206e3d	0.15667053
158	0xbe1fe775	-0.15615638
159	0x3debe8a7	0.11518984
160	0xbf4ec648	-0.80771303
161	0xbefdd0f6	-0.49573487
162	0xbf70f207	-0.94119304
163	0xbe04c64f	-0.12966274
164	0xbf11e4a1	-0.56989485
165	0xbfc11502	-1.5084536
166	0xbf59afdf	-0.85033983
167	0x3f00080b	0.5001227
168	0x3e180887	0.14847003
169	0xbe888c0a	-0.2666934
170	0xbe753a22	-0.23947957
171	0xbf5373ed	-0.82598764
172	0xbe35db0f	-0.17759345
173	0x3f368c5c	0.7130792
174	0x3d6f6408	0.058445007
175	0xbecc5d9d	-0.3991517
176	0xbe611820	-0.21981859
177	0xbee9420f	-0.4555821
178	0x3ec2df7f	0.3806114
179	0xbf08278d	-0.5318535
180	0x3dbefcb0	0.0932554
181	0x3d1e3d45	0.03863265
182	0xbf3ba4dd	-0.73298436
183	0x3ddb12eb	0.10696968
184	0x3e9a329e	0.30116743
185	0xbeadd1b1	-0.33949044
186	0xc01a2b8c	-2.408908
187	0x3c5fc57b	0.013657923
188	0xbed5949c	-0.41714942
189	0xbfac6a17	-1.3469876
190	0xbec49772	-0.38396794
191	0xbebc8a75	-0.36824384
192	0xbec994a2	-0.3937121
193	0xbf298aea	-0.6622759
194	0x3e6c2c0b	0.23063676
195	0xbe93f07c	-0.28894413
196	0xbe509426	-0.20369014
197	0xbef1784f	-0.471621
198	0xbf5875ec	-0.84554935
199	0x3f910532	1.132971
200	0xbdb8e467	-0.09027939
201	0xbe39d3b8	-0.1814717
202	0xbe892640	-0.26786995
203	0xbf686b9e	-0.9078921
204	0xbdf0a700	-0.11750603
205	0xbda7b585	-0.08188919
206	0xbdd7e226	-0.10541181
207	0xbe60bd0c	-0.21947116
208	0x3d2fb817	0.04290017
209	0xbe405dfa	-0.18785849
210	0xbea0a950	-0.31379175
211	0x3f0dfb46	0.5546154
212	0xbf93569e	-1.1510808
213	0xbdc5c6dc	-0.0965707
214	0xbf724aed	-0.9464558
215	0xbf89b1e5	-1.0757414
216	0x3ed33b94	0.41256392
217	0xbf089d83	-0.53365344
218	0x3ced45da	0.028963972
219	0xbf1fe132	-0.62452996
220	0x3e7bd9af	0.24594758
221	0x3c03c070	0.008041486
222	0xbf12e94c	-0.5738723
223	0x3eb3b9b1	0.3510261
224	0xbdfbb698	-0.12290686
225	0x3e485d1d	0.1956677
226	0xbeaeefca	-0.3416732
227	0xbe79e322	-0.2440305
228	0x3e07cd82	0.13261989
229	0xbf0c7384	-0.5486376
230	0x3e7d6ec7	0.2474929
231	0x3e0d72ae	0.13813278
232	0x3e98ac43	0.29818925
233	0xbed804d8	-0.42191195
234	0xbf57328a	-0.8406149
235	0xbe23199c	-0.15927738
236	0xbce50617	-0.027957005
237	0xbe0b7e80	-0.13622475
238	0x3ed40058	0.41406512
239	0x3dc29b4f	0.09502279
240	0x3e3315aa	0.17488733
241	0xbfaf557c	-1.3697963
242	0xbf9f6e6c	-1.2455573
243	0xbd9bccbe	-0.07607411
244	0xbe2884c3	-0.16456895
245	0xbeb3fa2a	-0.35151798
246	0xbe13e452	-0.14442566
247	0xbe6bfdaa	-0.23045984
248	0xbecb8ee3	-0.3975745
249	0x3f0f7c7c	0.56049323
250	0xbf955c19	-1.1668731
251	0xbeb855a2	-0.36002833
252	0x3f222176	0.6333231
253	0x3eced21e	0.40394682
254	0xbe451871	-0.19247605
255	0xbf3c1011	-0.73462015

fc2.bias f4 [128]
0	0x3fabbcfc	1.3417048
1	0xbf149780	-0.5804367
2	0xbf79f89e	-0.97644985
3	0x3e351973	0.1768549
4	0xbde41d75	-0.11138431
5	0x3fe3d492	1.7799246
6	0xbe385b05	-0.18003471
7	0xbe829620	-0.2550516
8	0xbeef8ae0	-0.4678564
9	0xbe1c0665	-0.15236814
10	0xbe894556	-0.26810712
11	0xbef45318	-0.47719646
12	0x3ec5a6c7	0.38603804
13	0xbfc77583	-1.5582737
14	0xbf09a390	-0.537652
15	0xbf140838	-0.5782504
16	0x3f8c4943	1.0959858
17	0xbe752306	-0.23939142
18	0xbfa0f9db	-1.257625
19	0xbc58fb0e	-0.01324345
20	0xbdffbaf7	-0.124868326
21	0xbf68a76f	-0.90880483
22	0xbf023d5a	-0.50874865
23	0xbe827cbb	-0.25485787
24	0xbefaf135	-0.4901215
25	0xbead5365	-0.33852687
26	0xbf23b66e	-0.6395024
27	0xbe79a327	-0.24378644
28	0xbf16bb9e	-0.5888003
29	0xbea4f0dd	-0.32215014
30	0xbfb3f2cd	-1.4058472
31	0x3f986d1a	1.1908295
32	0xbf0bfc29	-0.5468164
33	0xbec93c4b	-0.39303812
34	0xbe7cd010	-0.24688745
35	0xbf7f03e6	-0.99615324
36	0xbfc40204	-1.5313115
37	0x3dff74c1	0.12473441
38	0xbcfa08a3	-0.030521696
39	0x3ef2506c	0.47326982
40	0x3e20e98f	0.15714096
41	0xbe9ed54c	-0.31022108
42	0xbf2b35c4	-0.66878915
43	0x3e1676b0	0.14693713
44	0xbeda0ed3	-0.42589435
45	0xbe6a6a3f	-0.22892092
46	0xbf0ecdbd	-0.5578268
47	0x3d0879b0	0.033319175
48	0x3cee2465	0.029070089
49	0xbf9c7010	-1.2221699
50	0xbec6b23a	-0.3880785
51	0xbf108cf3	-0.5646507
52	0xbe68d154	-0.22736102
53	0xbed9e405	-0.42556778
54	0xbe389055	-0.18023808
55	0xbfbf17ba	-1.4929116
56	0xbd15897f	-0.03650808
57	0x3e825b5b	0.25460324
58	0xbf08f18e	-0.53493583
59	0x3f894729	1.0724841
60	0xbe37c1d9	-0.17945041
61	0xbe66cd47	-0.22539245
62	0xbfa675a4	-1.3004651
63	0x3edf4be7	0.43612596
64	0x3eb08448	0.34475923
65	0xbec00864	-0.37506402
66	0xbf45528d	-0.7707909
67	0xbe23acda	-0.15983906
68	0x3eef0e8a	0.4669078
69	0xbf054f4a	-0.5207411
70	0xbe30e5e5	-0.17275198
71	0xbf299c55	-0.6625417
72	0xbeb78202	-0.35841376
73	0xbed830c5	-0.42224708
74	0xbeb53c53	-0.35397586
75	0xbfbeda24	-1.4910321
76	0xbef91350	-0.48647547
77	0xbe80f69c	-0.25188148
78	0xbdb301c2	-0.0874057
79	0xbf689895	-0.9085782
80	0xbef47b10	-0.4775014
81	0xbe163dcc	-0.14672011
82	0xbbf2ec0d	-0.0074133934
83	0x3f39f808	0.7264409
84	0xbdc5b7ea	-0.096542194
85	0xbf32326d	-0.69608194
86	0xbf184478	-0.59479475
87	0xbf2c4765	-0.6729644
88	0xbf314535	-0.69246227
89	0xbe1ac85e	-0.15115497
90	0xbf53017b	-0.82424134
91	0xbef19b62	-0.4718886
92	0x3f9c5493	1.221331
93	0xbf9805f9	-1.1876823
94	0xbe3a932e	-0.18220207
95	0xbe18f4a7	-0.14937077
96	0xbe2769e1	-0.16348983
97	0xbe8abdbc	-0.2709788
98	0xbe8a3d16	-0.2699973
99	0xbf8700b1	-1.0547086
100	0x3fc4f5b5	1.5387484
101	0xbe3324e3	-0.1749454
102	0xbf7df474	-0.9920113
103	0xbd94c32e	-0.0726379
104	0x3f4f8eda	0.8107735
105	0xbe96f462	-0.29483324
106	0x3e31c4fe	0.17360303
107	0x3e80308d	0.2503704
108	0xbef85021	-0.48498634
109	0xbee6e3cd	-0.45095673
110	0xbe292e30	-0.16521525
111	0x3cac17ff	0.021007536
112	0xbe9f4a76	-0.31111497
113	0xbeb903e5	-0.36135784
114	0xbf327a27	-0.6971764
115	0xbe6a47e9	-0.22878994
116	0xbf15627c	-0.583534
117	0xbe4e2955	-0.20132954
118	0x3e257cf4	0.16160947
119	0xbee264b6	-0.4421746
120	0xbf99630d	-1.1983353
121	0xbde6d230	-0.11270559
122	0xbf455d73	-0.7709572
123	0xbf0d1878	-0.5511546
124	0x3e933f08	0.28759027
125	0x3e4d31eb	0.20038573
126	0x3f9ecb3e	1.2405775
127	0xbe0e0c68	-0.1387192

fc3.weight f4 [1, 128]
0	0x3dfb8f2d	0.12283168
1	0xbd8b2c11	-0.067955144
2	0xbe0e8b6f	-0.13920377
3	0xbdc41bf4	-0.09575644
4	0xbd685aee	-0.056727342
5	0x3ebbf25c	0.36708343
6	0x3d7f0174	0.062257245
7	0xbd2a2be3	-0.04154576
8	0xbd8334a4	-0.06406525
9	0x3d37000d	0.044677783
10	0xbbdc5fd1	-0.0067252894
11	0xbd84baef	-0.06480967
12	0xbdaa179e	-0.08305286
13	0xbe8b40cd	-0.27197877
14	0xbd927fa1	-0.071532495
15	0xbd4eb300	-0.050463676
16	0x3dbde109	0.09271438
17	0xbd507731	-0.05089492
18	0xbdab69b3	-0.0836977
19	0xbde12d5b	-0.10994979
20	0xbd00b407	-0.031421687
21	0xbded8127	-0.115968995
22	0x3ce2483b	0.027622333
23	0x3d0a28a0	0.03373015
24	0xbdbd6f53	-0.09249749
25	0xbd2a8638	-0.041631907
26	0xbd96f81c	-0.07371542
27	0xbcff6c33	-0.031179523
28	0xbd670f39	-0.056411
29	0x3cfb89ee	0.030705418
30	0xbe1f4b4d	-0.15556069
31	0x3e1e8ee5	0.15484197
32	0xba646be2	-0.00087135856
33	0xbd390c12	-0.045177527
34	0xbd93534b	-0.07193621
35	0xbdce6038	-0.10076946
36	0xbe6748eb	-0.2258641
37	0x3ce44730	0.027865976
38	0xbdd9e6d6	-0.106397316
39	0x3d8e6b20	0.06954026
40	0x3d6d1385	0.057879943
41	0x3cd948c1	0.02652395
42	0xbd980cd1	-0.074243195
43	0x3c360dd0	0.011111692
44	0xbd9698ca	-0.07353361
45	0x3ce303c0	0.02771175
46	0xbcecf11f	-0.02892357
47	0x3cd80003	0.026367193
48	0x3d45802b	0.048217934
49	0xbd9c8aea	-0.07643683
50	0xbd754674	-0.059881642
51	0xbd1859f8	-0.037195176
52	0x3d1a8465	0.037723918
53	0xbd3cd4ab	-0.046101253
54	0x3cd42d4d	0.025900507
55	0xbe4c616d	-0.1995904
56	0xbddd8e39	-0.108181424
57	0xbd675c32	-0.05648441
58	0xbd521ccf	-0.051297005
59	0x3d9fe438	0.07807201
60	0x3d083c8a	0.03326086
61	0xbd2966b4	-0.04135771
62	0xbe3dbdc2	-0.18529418
63	0x3d8045cf	0.06263315
64	0xbcc49b1c	-0.023999743
65	0xbcc3f41c	-0.023920111
66	0xbdc73368	-0.09726602
67	0x3d8ef24f	0.069798104
68	0x3d955898	0.072922885
69	0xbdb45060	-0.08804393
70	0x3ce7a607	0.02827741
71	0xbd33d441	-0.043903593
72	0xbdfa587c	-0.12223908
73	0xbe66255f	-0.22475193
74	0xbd154735	-0.03644486
75	0xbe540091	-0.20703341
76	0xbd7f2fbd	-0.062301386
77	0xbd95ed95	-0.07320706
78	0xbd0ff8df	-0.03514945
79	0x3dbb3f43	0.091429256
80	0xbccef334	-0.025262453
81	0x3c6f342d	0.014599842
82	0x3ca418ca	0.020031352
83	0x3cca0e4e	0.024665024
84	0xbdc315ec	-0.09525666
85	0xbd57cbf9	-0.052684758
86	0xbd36d6c3	-0.044638406
87	0xbd01679d	-0.031592954
88	0xbcb75885	-0.022381077
89	0xbd0f20bd	-0.03494333
90	0xbd5c5d4c	-0.053799912
91	0x3d4a65cf	0.0494135
92	0x3db89e24	0.09014538
93	0xbd83a1a8	-0.06427318
94	0x3d245b8e	0.040126376
95	0x3d3acd71	0.04560608
96	0xbd46281e	-0.048378102
97	0xbd456678	-0.048193425
98	0xbd96e288	-0.07367426
99	0xbdd3f605	-0.10349659
100	0x3e62c197	0.22144161
101	0xbdbaeacf	-0.091268174
102	0xbde1b833	-0.11021461
103	0x3d8116da	0.06303187
104	0x3db5d96a	0.08879359
105	0xbde91009	-0.113800116
106	0x3d862e3b	0.065517865
107	0x3d0be615	0.03415497
108	0xbb1f9e6f	-0.0024355908
109	0xbd4713d4	-0.048602894
110	0xbd6c7c0e	-0.057735495
111	0x3cc3b89f	0.023891745
112	0xbe0094b4	-0.12556726
113	0xbdb0c989	-0.0863219
114	0xbd4e8997	-0.050424185
115	0xbde9b2ed	-0.114110805
116	0xbd6e6cd6	-0.058209263
117	0xbd0ff3d0	-0.035144627
118	0x3d6af56f	0.05736297
119	0x3d5aa560	0.05338037
120	0xbdc3107c	-0.095246285
121	0xbd93f33c	-0.07224128
122	0x3c9438d4	0.018093504
123	0xbda2dde6	-0.0795248
124	0x3d3f020a	0.046632804
125	0xbd99be48	-0.075069964
126	0x3dee908d	0.116486646
127	0xbd397524	-0.04527773
