weights/checkpoint_actor.pth (torch_old, 87590 bytes, 10 tensors)

bn1.weight f4 [33]
00000000: 405d 733f ed2c 183f 37c6 843f 007f 633e
00000010: a79b 1cbe 790a 583e 3182 243e ce8e b5bd
00000020: 6022 f43d 4c32 0c3e d44e a63e 5e7f 4e3e
00000030: 01af 863e 14df bf3f cf80 483f 3fc2 b43f
00000040: 837c 543e c05f 6e3e f7e5 1b3e 0e2d 7b3e
00000050: 7513 483e 256f 273e 1c46 023e 2741 1f3f
00000060: be62 f03e dd57 133f 3c8e 953f 0426 4c3e
00000070: d7f7 913f 80dd c93b 1499 733f 0025 9a3d
00000080: dc39 5e3f
0.95064163 0.5944355 1.037299 0.22216415 -0.15293752 0.21097745 0.16065289 -0.088651285
0.11920619 0.13691062 0.32482016 0.20165774 0.26305392 1.4989953 0.78321546 1.4121779
0.20750622 0.23278713 0.15224443 0.24528906 0.19538672 0.16350992 0.12722057 0.6220879
0.46950334 0.57555944 1.1684031 0.19936377 1.140376 0.006160438 0.95155454 0.075265884
0.86807036

bn1.bias f4 [33]
00000000: 2ada e33d 1871 9fbe 1491 f1bd c2b0 2bbb
00000010: 09bb e4bc 0d62 76bd a2d5 a53b f4d4 bb3a
00000020: 2ee1 ab3c 6d4a a63c 6777 b83d 0c7e 95bd
00000030: 60b4 babc 6859 713c 6f2f e0bc c4c3 803c
00000040: 41d6 fa3b 67f0 9fbd 3a34 11bd fd8e b43d
00000050: 1231 ba3c e4e5 6b3c f295 58bb 06ae e13c
00000060: 92c3 d83c e7f0 77bb 759a 663d ee83 09bc
00000070: c21a 663d 3f01 a73c cb89 e2be cbd3 b13b
00000080: 9211 0bbe
0.11125596 -0.3114097 -0.117952496 -0.0026197885 -0.027921217 -0.060152102 0.0050608674 0.0014330433
0.020981397 0.02029916 0.09007149 -0.07299432 -0.022791088 0.014730789 -0.027366368 0.015718348
0.0076549356 -0.07809525 -0.035450198 0.08816335 0.022728477 0.014398072 -0.0033048359 0.027548801
0.026460443 -0.0037832798 0.056299645 -0.008393271 0.056177862 0.020386336 -0.44245753 0.005426859
-0.13580921

bn1.running_mean f4 [33]
00000000: 6f8a 2dbf ce9f 14c0 a6eb 1a3f dd15 4e3f
00000010: 1ed0 abbd eb5e 123c 03b8 b83d 11e9 a23c
00000020: 6d1e 353b 411f 873b a5bd e93b e521 08bc
00000030: ce70 64bd 8dd5 46bf b459 14c0 0aa4 9e3f
00000040: 41a0 06bd 207a 25be 9b0d 033d bf21 27be
00000050: 0194 a33d 96b2 843d 984a 44bd 45ce d7bc
00000060: 8b6c 0d3e 1756 543c 47b1 333e fcff 7fbf
00000070: 090b 153e 0000 0000 fcff 7f3f 0000 0000
00000080: 9789 0cbd
-0.6778936 -2.3222537 0.6051582 0.8050211 -0.083893046 0.008933763 0.090194725 0.019886525
0.0027636543 0.004123599 0.007133203 -0.008308862 -0.05577164 -0.776696 -2.317975 1.2393811
-0.032867674 -0.16159868 0.031995397 -0.16321467 0.07987214 0.06479375 -0.0479227 -0.026343474
0.13810937 0.012959979 0.17548095 -0.99999976 0.14554991 0.0 0.99999976 0.0
-0.034310903

bn1.running_var f4 [33]
00000000: 8c4a 8640 fb4f 1e3f 76ad a040 d342 003e
00000010: 7d01 903d f3c8 953c 4b75 fb3d 0e09 e63e
00000020: ad08 843d a0d8 e23d da01 0940 2cd7 b73f
00000030: 4927 5b40 8731 9441 f9b4 eb3f 395c ac41
00000040: 2735 da3d 2767 a13e 5c7a cb3d ea71 d93e
00000050: 57ad f53f 850d 3f3f 8f57 2e3f 13c0 fa40
00000060: 5703 9040 859e 1341 be6c fa41 0400 0000
00000070: 67bf 0242 0400 0000 0400 0000 0400 0000
00000080: 7783 a83e
4.1966 0.6184079 5.0211744 0.12525491 0.07031534 0.018284297 0.12278231 0.44928783
0.06446967 0.11076474 2.140738 1.436254 3.4242728 18.524183 1.8414603 21.54503
0.10654669 0.31524011 0.099354476 0.42469722 1.9193524 0.74630004 0.68102354 7.8359466
4.5004077 9.226201 31.303097 6e-45 32.686916 6e-45 6e-45 6e-45
0.329128

fc1.weight f4 [128, 33]
00000000: f3de efbe 35ca b8bc 525f 00bd c40a 60bd
00000010: fd2a 863e 55ce 86be 9203 14be cda6 1ebd
00000020: eb3d a2be fde2 5c3d 3c1e f83a 39cc 2fbf
00000030: 1ae5 61be 5e90 803f 882c c13e c34e 90bd
00000040: 07b1 46bf 514d d7be 25b0 3bbf 2fc4 153f
00000050: 9376 f4be 775c 823f 80cc c9be 40ee 5e3f
00000060: 29d8 3e3e 9b95 18bf 4bd0 28bf a7b5 22bd
00000070: 0d45 5ebf 039d 94bd c91e 073f 51ca b43e
00000080: e1c7 b73f 296d f1bd 03a0 a63e 56ff 6c3e
00000090: 3cc1 523d 5bcd d3bb 5ae8 6d3f 50d9 80be
000000a0: c339 3f3e 8f6d 223d 8cba d6be ae3c 55bd
000000b0: fadb bbbe 6b40 3d3c 1f3e cd3e 9bcf 66bf
000000c0: 9333 3dbf ad16 723d b772 273e fc44 603e
000000d0: d1e3 95bd 1a7d a83e a2d9 d3be 6bb6 c13b
000000e0: 3c49 fdbe 28be bebe d1a8 debd 6b6b 563e
000000f0: c2ce b23e 1123 48bc e362 8bbe e7bb b43f
00000100: a7f7 95be 9b30 4cbf d3ae 17bf 2163 503f
00000110: 3da9 2cbe cfa0 2d3e 40c3 32be 53d9 cabe
00000120: 126c a13e 19c5 8ebd c4b3 85bf 52ea aabe
00000130: 87ea 48bd 41a4 e83e 15e7 a6bd 7278 cb3e
00000140: 5f81 4bbf 8fb2 213f 6dbd 1a3e 3589 ca3e
00000150: dd87 193f 1cc2 0f3f 730c 06bd c88c cebc
00000160: 6f54 20bf 2d55 2e3e 39fe 8ebf 0d1a 673e
00000170: 9b58 b83e 6c8a 0a3e e55d 013e c394 c33e
00000180: 3af1 fe3e 18a5 27be ab17 9c3f 7cf3 4abf
00000190: 23ab 9f3f f436 ec3e c92e 7fbc 7d5c 7abe
000001a0: 2416 883e 0166 bd3e 5b12 903e 32a9 8f3e
000001b0: 01b8 98bf d208 9cbe 9c64 66be 46d3 cebe
000001c0: 9996 11bf 46ab bebf a564 a5bc ef7f a53e
000001d0: c00f 19bf c9c0 663f 59f8 2bbe 97ca 82be
000001e0: 5269 6abe daa8 ebbe 1137 13bf 0c67 e3be
000001f0: df9b 213f 9f6f 933e 9195 49bf b134 84bf
00000200: f11b d6bd ba75 923f 8ae9 b03d 16cc 55bf
00000210: 881a ddbe dc56 0a3e 5ef3 2fbf 20d1 2cbf
00000220: a721 f63d ff70 88be a88e b83d 956d 993c
00000230: 21a8 19be a6d8 a8be 5ae1 68bf 5e22 46be
00000240: 3b9c 3abf 1662 90be 1c45 fc3e 7039 e1be
00000250: b40b 61be 78d3 b3be 278e f2be 5524 bdbe
00000260: d1ad 18bd ed0a 01bf 7ce1 863e 7e64 73be
00000270: 80b3 9bbe 5982 fa3e ff1b 7f3e c51a 99bd
00000280: 3aa8 2f3f afe5 233c cf38 a43f fddf e2bd
00000290: bfcc eb3e 7362 103f 6bf4 9bbf f388 433f
000002a0: 8e95 3dbf e3af e6bd 552f 183f 6d40 64bf
000002b0: 3b3b c93e 7b03 31be 40e8 6ebe 3d9a 143f
000002c0: 0867 b13e 2e3f 5d3f d500 1bbf ecf0 a53f
000002d0: 8c25 11bf bca8 a8be 8649 af3e 7966 5dbe
000002e0: a26e acbe 468a aa3e a534 3a3f 27d6 823e
000002f0: c18a 943d 55f9 9c3f 80a7 1a3e ac21 383f
00000300: cd69 bd3d 23d4 193e ab7f 95be 19ef be3e
00000310: 36b0 a7be d568 2c3f d874 cabe b308 893f
00000320: 23e6 573f e3de 04bd 2f38 c53e 6696 533f
00000330: d653 66be 7788 993d 491c 31bd 84f4 7cbe
00000340: 5d8c 263c c411 ac3e 648d 14be b2cf 9bbe
00000350: 3a22 99bf 9724 9cbd 5a97 24be 22f9 95be
00000360: a8df b9bd 4e9c 2abf df81 093e 9420 0ebf
00000370: 4c0c 623d 6c63 01be b46c 8bbf c53e 023f
00000380: 49a5 233f b10c dfbd ef23 cabd b276 38bf
00000390: 2908 853f 2742 1c3e e08a 2ebe f98e 8fbe
000003a0: fc84 853d d665 693f 63bd 7cbc 47d4 eebe
000003b0: cc4b ca3e 203f b83d 6ed7 443e 818d 02bf
000003c0: bb7e 2b3f 0427 e8be 5e33 28be 506f 423c
000003d0: d0c9 d23e ec7d 67be 2fd8 8cbf 65d1 bd3c
000003e0: cb3e 023f b44e 8f3e 30f3 18be 4b51 07bf
000003f0: b892 313f 06c2 9a3d 5ff4 d5be 9f90 55be
-0.46849784 -0.022557357 -0.031340905 -0.054697767 0.26204672 -0.26329294 -0.14454487 -0.038733292
-0.31687865 0.05392741 0.0018929909 -0.68670994 -0.22060052 1.0044057 0.37729287 -0.070462726
-0.7761387 -0.42051175 -0.7331565 0.5850248 -0.47746715 1.0184468 -0.39413834 0.8708229
0.18637146 -0.5960328 -0.6594283 -0.03972402 -0.86824113 -0.0725651 0.5278135 0.35310605
1.4357873 -0.11788399 0.32543954 0.23144278 0.051453814 -0.0064636893 0.92932665 -0.25165796
0.18674378 0.039655264 -0.419392 -0.05205982 -0.36691266 0.011551003 0.40086457 -0.9016053
-0.7390682 0.059103657 0.16352354 0.21901315 -0.07318843 0.32907945 -0.41376978 0.0059116385
-0.49469936 -0.37254453 -0.10872043 0.20939414 0.3492337 -0.012215392 -0.27223882 1.4119843
-0.29290506 -0.79761666 -0.59251136 0.8140126 -0.16861434 0.16955875 -0.17457294 -0.3961893
0.31527764 -0.06971187 -1.0445485 -0.33381897 -0.049051788 0.45437816 -0.08149544 0.3974033
-0.7949428 0.63163084 0.15111323 0.39557806 0.59972936 0.5615556 -0.032726716 -0.025213614
-0.62628835 0.1702468 -1.1171333 0.22568531 0.360051 0.13529366 0.12633474 0.38199434
0.49793416 -0.16371572 1.2194723 -0.7927778 1.2474102 0.46135676 -0.015575119 -0.24449344
0.26579392 0.36991885 0.28139004 0.28058773 -1.1931154 -0.3047548 -0.22499317 -0.40395564
-0.5687042 -1.4896019 -0.020189593 0.32324168 -0.5978966 0.90137917 -0.16793956 -0.2554519
-0.22891739 -0.4602726 -0.575059 -0.44414556 0.63128465 0.28796098 -0.78743845 -1.032858
-0.10454548 1.1442177 0.08638294 -0.83514535 -0.43184304 0.13509697 -0.68730724 -0.675066
0.120181374 -0.2664871 0.090115845 0.01872901 -0.15005542 -0.3297779 -0.9096886 -0.19349048
-0.7289464 -0.28199834 0.49271476 -0.43989134 -0.2197712 -0.35122275 -0.4737408 -0.36941782
-0.03727514 -0.50407296 0.26343906 -0.23768803 -0.30410385 0.48927572 0.24913023 -0.07475809
0.6861607 0.010003491 1.2829837 -0.110778786 0.46054646 0.5640022 -1.2183965 0.7638084
-0.7405633 -0.112640165 0.5944722 -0.89160806 0.39303002 -0.17286484 -0.23330784 0.5804785
0.3464892 0.8642453 -0.60548145 1.2964149 -0.56697917 -0.32941234 0.3423578 -0.21621121
-0.33678156 0.3330862 0.7273658 0.2555401 0.07253028 1.226359 0.15102959 0.7192638
0.092486955 0.1502233 -0.29198965 0.37291792 -0.32751626 0.6734746 -0.3954227 1.070578
0.84335536 -0.032439124 0.38519427 0.82651365 -0.22492918 0.07496732 -0.043239865 -0.2470265
0.010165301 0.33607304 -0.14507061 -0.30431896 -1.196357 -0.076241665 -0.16073361 -0.29291636
-0.09075862 -0.6664475 0.13428448 -0.5551846 0.05518751 -0.12635583 -1.0892549 0.5087703
0.6392408 -0.108910926 -0.09870135 -0.72056115 1.0393115 0.1525961 -0.17045164 -0.28038767
0.065195054 0.91171014 -0.015426013 -0.4664633 0.39510953 0.08996415 0.19222805 -0.5099717
0.6699025 -0.45342267 -0.16425845 0.011867359 0.41169596 -0.22606629 -1.1003474 0.023171136
0.50877064 0.27989733 -0.14936519 -0.5285842 0.693645 0.07556538 -0.41788003 -0.2085595

fc1.bias f4 [128]
00000000: 5755 3cbf 25d6 9dbf 20f1 1fbf cf02 8abf
00000010: a206 b5bf e300 0cbf 5981 61bf 4131 85bf
00000020: ff89 9ebf 831a 48bf fb29 8abf 3029 04bf
00000030: 7829 a6bf 006d dbbd ee31 da3d 1c5f 51bf
00000040: c889 9abf e08d 0cbf ed42 81bf 3b6e 6abe
00000050: 2832 b6bf 66b9 91bf 7509 9dbc 01da 5bbf
00000060: ae29 2ebe e4df 7ebd 8d89 babf e1c5 ddbe
00000070: 6127 92bf 268a 0abf c921 18bf c0de 8abe
00000080: 6b7c 00bf f797 a5bf 589a eebe d84c 70bf
00000090: 6c5a 4dbf 6357 45bf e44e 30bf 5c10 d3be
000000a0: 4d07 28bf f364 96bf 4787 f2be be5c 3fbf
000000b0: 3c73 c0bf 9b7a 0d3e ce7a 95bf 21c4 a1bf
000000c0: d981 b1bf a8b5 f1be be09 5dbf 0086 90bf
000000d0: a0f9 a2bf 7e39 72bf 24c0 a8bf c6ea a6bf
000000e0: 8463 96bf 7d75 4cbe 1942 64bf 47db 8fbf
000000f0: f961 8ebf ca1c 20bf db6f 92bf 6131 3ebf
00000100: 1907 78bf 7faa a1bf cb41 16bf abdc 94bf
00000110: 4dc7 91be ea26 26bf bca3 81bf eabf 35bf
00000120: 0718 2dbf 60b7 5abf 6090 64bf 19c9 4dbf
00000130: 1dee 5bbf cf84 a8be 19d1 30bf 08ee 65bf
00000140: a549 89bf 6110 8ebe 0161 9d3f 34c7 9cbf
00000150: d3c4 333d 2929 82be c72d 2abf a7c9 2cbf
00000160: ce85 49bf 221f 3dbf 4da4 16bf 42ec 5dbf
00000170: 7935 24be 826f 61bf 0b2e b7bf 7935 9dbf
00000180: b888 86bf 1c1e 85bf 1ff1 d9bf ef8b 9ebe
00000190: 8953 19bf 3c91 273e 007c 65bf a8f8 94bf
000001a0: d51c 94bf 177f 68bf 546d 52bf bf86 33bf
000001b0: 3a00 f3be 7abf 783f 5da1 10bf d7aa b4bf
000001c0: c9f0 c9be 0899 85bf f07a 3abf 0ee3 16bf
000001d0: d2b2 36bf a09a d3be 1e5c 0abf b948 83bf
000001e0: 71b1 80bf 5900 1dbf f227 07bf f9f9 3fbf
000001f0: 61b1 933f 4d63 2dbf 3faf 67bf 80eb 06bf
-0.7356772 -1.2330977 -0.624773 -1.0782107 -1.4142649 -0.54688853 -0.88087994 -1.0405656
-1.2385863 -0.78165454 -1.0794061 -0.5162535 -1.2981405 -0.107141495 0.106540546 -0.8178575
-1.2073298 -0.54903984 -1.0098549 -0.22893612 -1.4234056 -1.1384704 -0.019169549 -0.8587952
-0.17008087 -0.062225237 -1.4573227 -0.43315032 -1.1418267 -0.5411705 -0.5942655 -0.2712307
-0.50189847 -1.2937001 -0.4660213 -0.93867254 -0.802161 -0.77086467 -0.6887038 -0.4122342
-0.6563614 -1.1749557 -0.47368833 -0.7475089 -1.5035167 0.13816302 -1.1678102 -1.2637979
-1.3867751 -0.47208905 -0.8634299 -1.1290894 -1.273243 -0.94618976 -1.3183637 -1.3040397
-1.174912 -0.19966693 -0.89163357 -1.1238793 -1.1123649 -0.6254393 -1.1440386 -0.74294096
-0.9688583 -1.2630156 -0.5869414 -1.1629843 -0.28472367 -0.6490313 -1.0128093 -0.7099596
-0.6761479 -0.8543606 -0.892828 -0.80384976 -0.8591021 -0.32913825 -0.6906906 -0.8981633
-1.07256 -0.2774687 1.2295228 -1.2248292 0.043888878 -0.25422028 -0.664761 -0.674952
-0.78719795 -0.7387563 -0.58844453 -0.86688626 -0.16036023 -0.8806077 -1.4310926 -1.2281944
-1.0510473 -1.0399814 -1.7026709 -0.30966136 -0.5989309 0.16363996 -0.89642334 -1.1638384
-1.1571299 -0.90818924 -0.8219807 -0.7012748 -0.4746111 0.9716717 -0.5649622 -1.4114636
-0.39441517 -1.0437326 -0.7284384 -0.5894021 -0.7136661 -0.41328907 -0.5404681 -1.0256568
-1.0054151 -0.61328655 -0.52795327 -0.74990803 1.1538507 -0.67729646 -0.9050178 -0.52703094

fc2.weight f4 [128, 128]
00000000: e9bb e63a 2225 30bd 2877 8ebd bc06 893f
00000010: 0e51 ef3e 53fb 4abe d89f 9b3e d1e4 34bf
00000020: c302 0340 f93a 90be ed8b 5ebe a551 2fbf
00000030: 26fa d8be 0df3 8abf 9ec7 9d3e 5b1e 64bf
00000040: 5301 87bf 119a 31bf d2d7 e53c eedb 943f
00000050: 18a7 873e 999d 243c 99a1 3d3e bdd8 df3e
00000060: cc48 fabe bec4 ce3d 398c 95bf 7e56 aebf
00000070: 4bf2 84bf dd51 2fbf b1ec 113e 5050 613f
00000080: 5e5b 8cbe 0fbd 2abf 80b2 f7be db91 99bf
00000090: b0dd 76bf e3b4 9b3e 1817 f03e 54de 94be
000000a0: 4655 16bf 6d04 bbbf da4b 963e 6dce 023f
000000b0: 0e7c 57bd c638 bdbf 5370 b43e 66d3 173f
000000c0: b124 9b3f 83ab 0cbe 56dc b8bf 4463 9cbf
000000d0: 6f4e 2cbf d654 efbc 0033 1fbf b8e5 e23d
000000e0: 5e4b a63c f1c3 91bf 92c6 12bf d847 a8bf
000000f0: b063 1d3f 3c8b 07bc 1796 ccbe 3ed5 ccbe
00000100: 1ee9 443d 499a 373e dc58 743e 34c3 23bf
00000110: da49 3d3f 402a e0be 13c4 62be 0f28 e0bd
00000120: 0155 0fbf 81c7 1dbf 1a37 3fbe 4eff d2bf
00000130: 6795 f4bf 1456 bc3f 60c3 7d3f ae48 ce3e
00000140: 48e7 aabc a704 ec3e 1c7c 8dbf 8ab1 db3d
00000150: fbeb c1bf 5d6b 89bf cce9 963e a82a 2fbf
00000160: 0106 84be ba42 40be 7f82 1c3e 8db4 d33d
00000170: faee a33d f0d8 61bf 71c1 54bf 4baa d4bc
00000180: f6e2 54be 0a68 99bf 5362 fbbe 6bdd d13e
00000190: dee6 2ebf a4c0 483e 567a fe3e 568d 923f
000001a0: 452f c9be 5c78 26bf 9452 aa3e 6b0e 9d3e
000001b0: 6e35 303e e885 0abf e469 c43d b446 a6be
000001c0: bf06 923e 8c53 bd3e 05fd 99bf 1b34 793d
000001d0: 7b34 143f d106 f6bd 8c28 033f 0e59 b8be
000001e0: e332 3d3f 7c55 a13f c7e3 9e3e 3aa8 4e3d
000001f0: b917 5fbc c9f0 42bf 454e 5abf cafd 053f
00000200: 9aca 94bf c98d b13e ae52 e1be 2408 b43f
00000210: c99b 3d3d 6e04 ad3e 8641 59be 4e9b 0d3e
00000220: 1137 953e dc8d 2f3f 881a 303e 1df1 edbf
00000230: a547 cbbe 4c7a c7bd b763 21bf 6d23 b0be
00000240: 7d11 47bf 72a6 223f 150b 8ebf c991 0dbe
00000250: 315c a1be 8ab6 a1bf d2c5 5cbe b693 eb3d
00000260: b73a 70bf eb07 3c3f a740 f5be 4bad d3bf
00000270: 5dfe 2abf 41d2 363f 067c d73e 3bab 413f
00000280: 4d88 2ebe bdcf 9fbe cb9f 2e3f 6ca7 35bf
00000290: 8fc1 e7be 39ba 2e3e bcbb e63d b7bd 163f
000002a0: 332a 513f 58a9 1fbe fd68 dfbf 7a66 e1be
000002b0: 5a90 e0bd 3182 2c3f 7112 d4bf 3930 59be
000002c0: 3a6e 6fbf a020 60be ce5c 4abf aede aa3e
000002d0: ae64 74be ee70 75bd 9864 59bf 4583 433e
000002e0: f4e2 eebe 80cd aabd fe5e 303f 8e6b 993d
000002f0: 16cb 92be 5594 253f 8d2d 71be db50 58bf
00000300: ff2a 443f c010 323e c84c 47bf 619e 193f
00000310: 8f28 573e 86a5 293f 7915 12bf 12b1 adbf
00000320: b0e0 8a3e 9416 e73e ba2e 2ebf b8d7 88be
00000330: 89fb 8abf 46f5 55bf 6a9f 9d3e 63bb 993f
00000340: 848b 4f3e b917 dfbd c0b1 54be c434 9fbe
00000350: d101 64bf baee 8c3e 0407 23bf c794 21bf
00000360: 720b 6fbf 458c 183f 6797 babf d479 26bf
00000370: e42a 1d3e 29cf 29be c2b9 babf fef1 87bf
00000380: cd1d e6be 1f98 27bf b4c3 3fbf 550f 42bf
00000390: 5db9 6cbe 9ba8 443e 578e 55bf 0c35 8cbf
000003a0: c4d0 0ec0 445a db3f f54c 1b3e 2abb 6bbf
000003b0: bda7 47bf b320 8cbf 36e2 2f3c 0695 473f
000003c0: 0ae5 44bf a3d3 25bf b195 81bf d8d7 a03e
000003d0: 1eff b8be b67d b2be 4799 1ebf 0d44 973e
000003e0: 4172 85be 8c28 07bf 0853 62bd 62d2 8abf
000003f0: 56da 353e 63c5 70be 9865 cd3e 5b96 a3bc
0.0017603609 -0.043004163 -0.06956321 1.070518 0.46741527 -0.19822435 0.3039539 -0.70661646
2.0470436 -0.28169993 -0.21733065 -0.68483955 -0.42378348 -1.0855423 0.30816358 -0.8910882
-1.0547279 -0.6937571 0.028057013 1.1629617 0.2649467 0.01004734 0.18518676 0.43720046
-0.48883665 0.10096119 -1.1683418 -1.3620145 -1.0386442 -0.6848429 0.14250447 0.8801317
-0.27413458 -0.6669473 -0.48378372 -1.1997637 -0.9643202 0.30411443 0.4689262 -0.29075873
-0.58723867 -1.4610726 0.29354745 0.5109623 -0.052608542 -1.4782951 0.35241947 0.59306943
1.2120572 -0.13737302 -1.4442241 -1.2217793 -0.6730718 -0.029215258 -0.62187195 0.110789716
0.02029961 -1.1387922 -0.57334244 -1.3146925 0.61480236 -0.008272942 -0.3995826 -0.4000644
0.04807388 0.17929949 0.23862022 -0.6396973 0.73940814 -0.43782234 -0.22145109 -0.109451406
-0.5598908 -0.61632544 -0.18673363 -1.6484163 -1.9108094 1.4713769 0.99126244 0.40289825
-0.020862237 0.460973 -1.10535 0.10727222 -1.515014 -1.073589 0.29475248 -0.68424463
-0.2578583 -0.18775454 0.15284155 0.10337172 0.080045655 -0.88221645 -0.8310767 -0.025960108
-0.20789704 -1.1984875 -0.49098453 0.4098924 -0.68321025 0.19604737 0.4970271 1.1449382
-0.39293876 -0.65027404 0.33266127 0.30675063 0.17207882 -0.54110575 0.095905095 -0.32475817
0.28520772 0.36977804 -1.203034 0.060840707 0.5789258 -0.12013019 0.51233745 -0.36005443
0.7390577 1.2604213 0.31033155 0.050453402 -0.013616496 -0.7614866 -0.8527568 0.52340376
-1.1624329 0.34678486 -0.44008392 1.4064984 0.046291146 0.33792442 -0.21216401 0.13828775
0.29143575 0.68575835 0.17197621 -1.8589207 -0.39703098 -0.09740123 -0.6304278 -0.34402028
-0.7776106 0.63535225 -1.1097132 -0.13825144 -0.3151565 -1.2633832 -0.21559837 0.11502783
-0.9383959 0.7344958 -0.47900888 -1.653726 -0.6679438 0.7141457 0.4208681 0.756519
-0.17044182 -0.3121318 0.68212575 -0.7095859 -0.4526486 0.17063226 0.11266276 0.5888323
0.81705016 -0.15591943 -1.7453915 -0.44023496 -0.10965033 0.67386156 -1.6568128 -0.21209802
-0.9352757 -0.21887445 -0.7904786 0.33373016 -0.23866531 -0.05992215 -0.8491912 0.19093044
-0.46657526 -0.08339977 0.68894947 0.074912176 -0.28670567 0.6467946 -0.23552532 -0.84498376
0.76628107 0.17389202 -0.77851534 0.6000729 0.21011566 0.66268194 -0.57064015 -1.3569663
0.27124548 0.45134413 -0.6804005 -0.2672708 -1.0858012 -0.8357738 0.30785686 1.2010311
0.20268065 -0.108931966 -0.20770931 -0.31094944 -0.8906527 0.27525884 -0.6368258 -0.6311764
-0.9337684 0.59589034 -1.4577454 -0.65029645 0.15348393 -0.16582932 -1.4587939 -1.0620725
-0.4494461 -0.65466493 -0.74907994 -0.75804645 -0.23117585 0.19204943 -0.8342032 -1.0953689
-2.231492 1.7136922 0.15166076 -0.92082465 -0.77990323 -1.0947479 0.010735085 0.77961767
-0.76911986 -0.64776057 -1.0123807 0.31414676 -0.3613214 -0.34861535 -0.6195263 0.29544106
-0.2606373 -0.52796245 -0.055254966 -1.0845454 0.1775907 -0.23512797 0.40116572 -0.019969156

fc2.bias f4 [128]
00000000: 0e96 c7be fe8e 8abe 351a aebf 7bc7 b8be
00000010: cccc 99be 2b4e 90bf 1bc1 c1be 4866 f9be
00000020: d765 6fbf d763 1bbf 2e71 d1bc f6bb 403e
00000030: 1131 84bf 8870 0dbf a361 11bf 25a9 b6bf
00000040: dab8 efbf df14 12bf 54f0 4dbf 51d2 c8bd
00000050: f37d 8fbf b42d 8abe b5c7 75be 1dc7 a7bd
00000060: b53f 60bf d322 03c0 e7fd a3bf e5e5 c3be
00000070: 052a 99be 4a06 68bd 10b8 2fbe 1740 d3bf
00000080: 54ac 8abf a625 0cbf d7e6 12c0 7d0d cdbf
00000090: 2954 d7be 3556 f7bd a0d4 75bf 9b51 07bf
000000a0: 73e8 75bf 8300 a2bf f9fb 64bf 2267 01bf
000000b0: 7ad5 0cbf 391a b1bf d804 72be f1c5 08be
000000c0: c1d2 3bbf 3761 be3b a8ff a4bf 7c9b 23bf
000000d0: b357 9bbe 0c34 9abf d3b9 d7be 4aaa b6bf
000000e0: 1546 bfbe 8eb0 43bf 9da5 bdbf 95c0 bfbd
000000f0: 7c32 0dbf 0887 93bf 3640 32bf 22d8 98bf
00000100: a5a8 9abf c462 bd3d 6b39 87bf 282e a7bd
00000110: b710 05c0 4951 53bf abde 52bf be9c e2be
00000120: a336 38bd 0da9 6ebf ee64 2cbf 146a 96bf
00000130: 5af9 30bf 2c65 15be de12 64bf 11f1 2fbf
00000140: df44 87bf 9de3 753e 24ff 35bf 5111 fabf
00000150: 4eeb b4bf 211c 5dbf 2a70 67be 80a1 52bf
00000160: 848c 00bf fa3d 06bf 7da1 5fbe 714a b8bf
00000170: efb2 36be 48ab 6dbf f059 f7be 6227 65bf
00000180: c2e7 43bf b9b5 443f 8846 b5be 2493 54bf
00000190: 9a96 44be 75de 8ebf 3ec9 fbbe 9087 93bf
000001a0: 2991 94bf 04e6 57bf bd73 00be 3543 b7bd
000001b0: 4891 89bf a681 b7bf 0d1d 4cbf df62 5abf
000001c0: 2e06 50bf 085f 2abd ef6d 3a3e b674 13bf
000001d0: 44ea 12bf df0b 49bf d468 92bf 5f57 acbf
000001e0: 0774 48bf 2bcc fc3c c9e1 a4bf 26e9 86be
000001f0: 41b2 9bbf 5d93 67bf fe38 d9bf 6ded cdbe
-0.3898167 -0.2706222 -1.3601748 -0.36089692 -0.3003906 -1.1273855 -0.3784264 -0.48710847
-0.9351477 -0.6069922 -0.025566664 0.18821701 -1.0327474 -0.55249834 -0.56789607 -1.4270369
-1.8728287 -0.57063097 -0.80444837 -0.0980574 -1.1210312 -0.26987994 -0.24001963 -0.08192275
-0.8759721 -2.0490005 -1.281186 -0.38261333 -0.2991487 -0.056646623 -0.17160058 -1.6503934
-1.083384 -0.54744947 -2.2953393 -1.6019741 -0.42056397 -0.120769896 -0.96027565 -0.52858895
-0.96057814 -1.2656406 -0.8944698 -0.50547993 -0.5501324 -1.3836128 -0.2363466 -0.13356759
-0.7336846 0.0058099288 -1.289052 -0.63909125 -0.30340347 -1.2047133 -0.4213396 -1.4270718
-0.37358156 -0.76441276 -1.4816166 -0.09362904 -0.5515516 -1.1525583 -0.6962923 -1.1940958
-1.2082716 0.09247354 -1.0564398 -0.081631005 -2.0791452 -0.82545906 -0.82371014 -0.4426021
-0.04497398 -0.932267 -0.67341506 -1.1751122 -0.6913048 -0.14589375 -0.8909129 -0.68727213
-1.0567893 0.24012609 -0.7109244 -1.9536535 -1.4134309 -0.86371046 -0.22601381 -0.8227768
-0.5021441 -0.5243832 -0.21838947 -1.4397718 -0.17841695 -0.9283948 -0.48310804 -0.8951322
-0.7652551 0.76839787 -0.35405374 -0.8303702 -0.19198075 -1.1161638 -0.49176973 -1.1525745
-1.1606799 -0.8433535 -0.1254415 -0.089483656 -1.0747461 -1.433644 -0.7973183 -0.85307115
-0.8125943 -0.041594535 0.18205999 -0.5759996 -0.5738871 -0.7853374 -1.1438241 -1.3464164
-0.78302044 0.030859074 -1.2881404 -0.26349753 -1.2163774 -0.90459234 -1.6970518 -0.40220204

fc3.weight f4 [4, 128]
00000000: 7934 4f3f 7841 433f c9b5 123e 1000 2c3f
00000010: 1b09 f93d 67a3 97be ff51 29bf 9327 09bf
00000020: 6cea b53f 48db ddbe f3c5 cfbe 6854 323f
00000030: 2820 a63e 4e4e 10be ae07 c7be 9680 1e3f
00000040: 48d7 663f f70a 17bf 1e30 863f bd65 a3bf
00000050: 41fb e3bd 5d41 c6be 126d c53e 8b8d a2bf
00000060: 52db 6bbf ca7b 0ebf bd55 04bf ef45 9bbe
00000070: 347e 4cbd b313 c23e ae09 6fbf 29f1 e3bd
00000080: 5a65 033f d499 1f3e 1c91 103d c863 723e
00000090: f34e 833f 7563 23bf 17cb f8be 5c7f 35bf
000000a0: 9b7f 793e 76f5 4d3f e36d 91bf 952c 163e
000000b0: d53a 8a3e 99b3 183f e099 45be 8a1b 1a3d
000000c0: db2f bfbe 1050 293f 2f6c bf3d 9754 22be
000000d0: 8e3e 9c3f 3997 23be 7133 553f e9ea dbbe
000000e0: 2458 93bd 795f 7f3d 6b0c fbbe 8ec1 bf3e
000000f0: 39a3 c1be cab2 553f 04ae 833e 56ef 5ebd
00000100: 39b9 16bf f772 f5be 64b5 7e3f d20a 843e
00000110: 807e 643e 8a88 d73d 14c4 d33e ea65 9ebe
00000120: 9059 713e cfaa 183e e255 c83e d021 0cbd
00000130: fd99 81bd 8b68 273e 572e a13d 9cf2 d23e
00000140: c5fa 2b3f d3f3 34be a54d 5a3f f902 3f3e
00000150: c1a9 85bf c7ac 4dbf 2d4f 30be 3bca 063d
00000160: 1411 833e 5ae5 ba3e b118 33bf 44b0 9bbe
00000170: 55ef 0b3d fa6e e53e 4f69 f53e 6aa2 eb3e
00000180: b61c 783c cc3c 8fbd 832a a9bd e75d 133f
00000190: 6a83 d8bc 40eb 3fbe 89b5 ee3e 14e7 073f
000001a0: 529a 333e 4be2 0fbf 30d8 58bf 2d75 9fbe
000001b0: dc89 a4be 5d05 b23e 55ff ccbe ca64 15bf
000001c0: 74bf 023e 9cac ee3e 9ac8 263c 1350 603f
000001d0: c2c7 0c3f 0744 3bbf fe11 713d e3d4 b9be
000001e0: 717f c9bf cdda 463d bcfb 6c3d 4c9b ce3d
000001f0: bf18 babd da21 52bd 4a31 a53f 671a 6cbe
00000200: 4f45 d93e cbfd 0b3f 1861 513f 564e a0bf
00000210: 812a 90bf 3bf2 2d3f 0b7d 04be f7d4 76be
00000220: 4249 eb3d 6911 62bf 3b50 5dbe f002 b6be
00000230: b24a a23d c16a 4bbf 18e6 0bbd 38e2 b3be
00000240: c359 d93f 9903 c23f 3ea3 c93e 354b 013f
00000250: 924a 0d3f ea81 f4be 13ea 5dbf 5890 c9be
00000260: cf6d 93bf 01cd 113f 19ad 86bd 152b 50bf
00000270: 26c4 40bd c6ed 443f b7d1 133e 8d79 873e
00000280: cb34 953f 9c1b 9d3f 3780 71bd 020f 9d3f
00000290: 4fe4 d63e c260 bebe fbf1 03bf f22d 4bbe
000002a0: f9b4 03bf 065c 07bf bf81 703f 76c5 9d3f
000002b0: 787c 16bf a8b4 8cbf bf6d 1ebf d4ab 9c3d
000002c0: 7ee5 473d 8e8e 3b3f bae6 6ebf 9923 ca3f
000002d0: 4655 2cbe 8076 8f3f 65d2 df3d 846a 6c3e
000002e0: f403 293f 88d1 9ebf 4a37 8fbf 7925 a53f
000002f0: cb04 843f b50c c03f ad8a 9e3f 27d9 683e
00000300: 7c2d b83a a4f4 3ebf a4ad 41bf 6be8 143f
00000310: 2bb8 77bd baa1 ab3f 91d3 e53f 8e57 dd3f
00000320: 227f bbbe 7020 593f 64d7 b3be ae5f 1abf
00000330: 830d 983f c171 243f e941 c63f 2c75 ddbf
00000340: dd64 b3be 89c5 46bf 1321 3b3f 701d 5c3f
00000350: 5d60 1c3f d0a3 2b3e 0444 943f 94cc ff3e
00000360: f8f0 5c3f 1d15 0cbe 2e22 fabe e747 723f
00000370: e710 883f 26c4 8a3f 912b ffbe f5f4 923f
00000380: d984 adbe 32c2 313f 6c94 2e3f 3bb3 60bf
00000390: 4cf8 a9bf b5a2 9ebe b485 733f 6da0 aa3e
000003a0: bcb6 92bf ae8c 4fbf 07e6 563f 894e aa3d
000003b0: 44e4 e3bd 008b 7bbe 284d 033f a69a cfbf
000003c0: 4d38 8fbf 7913 cbbe 3ef6 60bf 6b19 19bf
000003d0: c512 bdbe d941 1dbe 21ee 043e 9cc5 133f
000003e0: c7ac 933f f52e b1bf 926d 893f 3934 97bf
000003f0: 3e07 be3f 6995 033f dbdb 82bd ed5f eb3e
0.8093944 0.7627177 0.14327158 0.67187595 0.1215994 -0.29616854 -0.6614074 -0.5357601
1.4212165 -0.4333136 -0.4058071 0.69660044 0.32446408 -0.14092371 -0.38873047 0.61914957
0.90172243 -0.59001106 1.0483434 -1.2765423 -0.11131907 -0.38721743 0.38559777 -1.2699445
-0.9213153 -0.5565764 -0.51693326 -0.30326793 -0.049925044 0.37905654 -0.93374145 -0.11129982
0.51326525 0.15586025 0.035294637 0.23670876 1.0258468 -0.63823634 -0.48592445 -0.7089746
0.24365084 0.8045267 -1.136166 0.14665444 0.2699801 0.59649044 -0.1929698 0.03762392
-0.37341198 0.6613779 0.09346806 -0.15852581 1.220659 -0.15975656 0.8328162 -0.4295266
-0.07194546 0.06234691 -0.49032912 0.37452358 -0.37819842 0.83475935 0.257187 -0.054427467
-0.5887638 -0.47939274 0.9949553 0.25789505 0.22313881 0.1052409 0.41360533 -0.3093713
0.23569322 0.14908908 0.39128023 -0.034211934 -0.06328199 0.16348474 0.07870167 0.4120072
0.6717952 -0.17671137 0.85274726 0.18653478 -1.044243 -0.8034176 -0.17217703 0.032907706
0.25598967 0.36503106 -0.6995955 -0.30407917 0.03416379 0.4481123 0.47931907 0.4602235
0.015143564 -0.06994018 -0.082600616 0.5756516 -0.02642985 -0.18742085 0.46622875 0.5308697
0.17539337 -0.5620467 -0.84704876 -0.31144086 -0.32136428 0.34769717 -0.40038553 -0.58356917
0.12768346 0.46616066 0.010179663 0.87622184 0.54992306 -0.73150676 0.05885505 -0.36295232
-1.5742017 0.04854851 0.05785726 0.10088214 -0.09086751 -0.051301815 1.2905667 -0.23056947
0.4243569 0.5468413 0.8178878 -1.2523906 -1.1262971 0.6794774 -0.12938325 -0.24104677
0.11488582 -0.88307816 -0.21612637 -0.35549116 0.07924403 -0.7945977 -0.03415498 -0.3513353
1.6980518 1.5157348 0.39382356 0.5050538 0.5519191 -0.47755367 -0.86685294 -0.39367938
-1.1517886 0.56953436 -0.065759845 -0.8131574 -0.04706206 0.76925313 0.14435469 0.26459923
1.1656736 1.2274051 -0.058960166 1.2270205 0.4197106 -0.37183195 -0.5154111 -0.19841745
-0.5144802 -0.5287479 0.93947977 1.2325885 -0.58783674 -1.0992632 -0.6188621 0.07649961
0.048802845 0.73264396 -0.9332081 1.5792114 -0.16829404 1.1208038 0.109288014 0.23087507
0.66021657 -1.2407694 -1.1188748 1.2902061 1.0313963 1.5003878 1.238607 0.22739087
0.0014051641 -0.7459204 -0.7565558 0.5816714 -0.06047837 1.340873 1.795519 1.7292345
-0.36620432 0.8481512 -0.35125268 -0.60302246 1.1879123 0.64236075 1.5488864 -1.7301383
-0.3503789 -0.77645165 0.7309734 0.8598242 0.6108454 0.16761708 1.1583257 0.49960768
0.8630519 -0.13679929 -0.48854202 0.94640964 1.0630158 1.084111 -0.49837926 1.1481005
-0.33890417 0.69436944 0.68195224 -0.87773484 -1.3278899 -0.3098351 0.9512589 0.3332552
-1.1462016 -0.81074035 0.83944744 0.08315761 -0.111275226 -0.24564743 0.51289606 -1.621907
-1.1189057 -0.39663294 -0.87875736 -0.5980441 -0.36928383 -0.1535715 0.12981464 0.577234
1.1537102 -1.3842455 1.0736563 -1.1812812 1.484596 0.51399857 -0.0638959 0.45971623

fc3.bias f4 [4]
00000000: ed34 84bd b027 ad3c 3c5e 5c3e 1a80 153e
-0.06455407 0.021137089 0.21520323 0.14599648
